<?xml version="1.0"?>
<net name="torch-jit-export" version="11">
	<layers>
		<layer id="0" name="input" type="Parameter" version="opset1">
			<data shape="1,3,240,320" element_type="f32" />
			<output>
				<port id="0" precision="FP32" names="input">
					<dim>1</dim>
					<dim>3</dim>
					<dim>240</dim>
					<dim>320</dim>
					<rt_info>
						<attribute name="layout" version="0" layout="[N,C,H,W]" />
					</rt_info>
				</port>
			</output>
		</layer>
		<layer id="1" name="Gather_7723_compressed" type="Const" version="opset1">
			<data element_type="f16" shape="1, 3, 1, 1" offset="0" size="6" />
			<rt_info>
				<attribute name="preprocessing" version="0" />
			</rt_info>
			<output>
				<port id="0" precision="FP16">
					<dim>1</dim>
					<dim>3</dim>
					<dim>1</dim>
					<dim>1</dim>
				</port>
			</output>
		</layer>
		<layer id="2" name="Gather_7723" type="Convert" version="opset1">
			<data destination_type="f32" />
			<rt_info>
				<attribute name="decompression" version="0" />
				<attribute name="preprocessing" version="0" />
			</rt_info>
			<input>
				<port id="0" precision="FP16">
					<dim>1</dim>
					<dim>3</dim>
					<dim>1</dim>
					<dim>1</dim>
				</port>
			</input>
			<output>
				<port id="1" precision="FP32">
					<dim>1</dim>
					<dim>3</dim>
					<dim>1</dim>
					<dim>1</dim>
				</port>
			</output>
		</layer>
		<layer id="3" name="Multiply_7292" type="Multiply" version="opset1">
			<data auto_broadcast="numpy" />
			<input>
				<port id="0" precision="FP32">
					<dim>1</dim>
					<dim>3</dim>
					<dim>240</dim>
					<dim>320</dim>
				</port>
				<port id="1" precision="FP32">
					<dim>1</dim>
					<dim>3</dim>
					<dim>1</dim>
					<dim>1</dim>
				</port>
			</input>
			<output>
				<port id="2" precision="FP32">
					<dim>1</dim>
					<dim>3</dim>
					<dim>240</dim>
					<dim>320</dim>
				</port>
			</output>
		</layer>
		<layer id="4" name="Gather_7726_compressed" type="Const" version="opset1">
			<data element_type="f16" shape="1, 3, 1, 1" offset="6" size="6" />
			<rt_info>
				<attribute name="preprocessing" version="0" />
			</rt_info>
			<output>
				<port id="0" precision="FP16">
					<dim>1</dim>
					<dim>3</dim>
					<dim>1</dim>
					<dim>1</dim>
				</port>
			</output>
		</layer>
		<layer id="5" name="Gather_7726" type="Convert" version="opset1">
			<data destination_type="f32" />
			<rt_info>
				<attribute name="decompression" version="0" />
				<attribute name="preprocessing" version="0" />
			</rt_info>
			<input>
				<port id="0" precision="FP16">
					<dim>1</dim>
					<dim>3</dim>
					<dim>1</dim>
					<dim>1</dim>
				</port>
			</input>
			<output>
				<port id="1" precision="FP32">
					<dim>1</dim>
					<dim>3</dim>
					<dim>1</dim>
					<dim>1</dim>
				</port>
			</output>
		</layer>
		<layer id="6" name="Divide_1614" type="Add" version="opset1">
			<data auto_broadcast="numpy" />
			<input>
				<port id="0" precision="FP32">
					<dim>1</dim>
					<dim>3</dim>
					<dim>240</dim>
					<dim>320</dim>
				</port>
				<port id="1" precision="FP32">
					<dim>1</dim>
					<dim>3</dim>
					<dim>1</dim>
					<dim>1</dim>
				</port>
			</input>
			<output>
				<port id="2" precision="FP32">
					<dim>1</dim>
					<dim>3</dim>
					<dim>240</dim>
					<dim>320</dim>
				</port>
			</output>
		</layer>
		<layer id="7" name="Gather_7729_compressed" type="Const" version="opset1">
			<data element_type="f16" shape="16, 3, 3, 3" offset="12" size="864" />
			<rt_info>
				<attribute name="preprocessing" version="0" />
			</rt_info>
			<output>
				<port id="0" precision="FP16">
					<dim>16</dim>
					<dim>3</dim>
					<dim>3</dim>
					<dim>3</dim>
				</port>
			</output>
		</layer>
		<layer id="8" name="Gather_7729" type="Convert" version="opset1">
			<data destination_type="f32" />
			<rt_info>
				<attribute name="decompression" version="0" />
				<attribute name="preprocessing" version="0" />
			</rt_info>
			<input>
				<port id="0" precision="FP16">
					<dim>16</dim>
					<dim>3</dim>
					<dim>3</dim>
					<dim>3</dim>
				</port>
			</input>
			<output>
				<port id="1" precision="FP32">
					<dim>16</dim>
					<dim>3</dim>
					<dim>3</dim>
					<dim>3</dim>
				</port>
			</output>
		</layer>
		<layer id="9" name="Multiply_7296" type="Convolution" version="opset1">
			<data strides="2, 2" dilations="1, 1" pads_begin="1, 1" pads_end="1, 1" auto_pad="explicit" />
			<input>
				<port id="0" precision="FP32">
					<dim>1</dim>
					<dim>3</dim>
					<dim>240</dim>
					<dim>320</dim>
				</port>
				<port id="1" precision="FP32">
					<dim>16</dim>
					<dim>3</dim>
					<dim>3</dim>
					<dim>3</dim>
				</port>
			</input>
			<output>
				<port id="2" precision="FP32">
					<dim>1</dim>
					<dim>16</dim>
					<dim>120</dim>
					<dim>160</dim>
				</port>
			</output>
		</layer>
		<layer id="10" name="Constant_7301_compressed" type="Const" version="opset1">
			<data element_type="f16" shape="1, 16, 1, 1" offset="876" size="32" />
			<output>
				<port id="0" precision="FP16">
					<dim>1</dim>
					<dim>16</dim>
					<dim>1</dim>
					<dim>1</dim>
				</port>
			</output>
		</layer>
		<layer id="11" name="Constant_7301" type="Convert" version="opset1">
			<data destination_type="f32" />
			<rt_info>
				<attribute name="decompression" version="0" />
			</rt_info>
			<input>
				<port id="0" precision="FP16">
					<dim>1</dim>
					<dim>16</dim>
					<dim>1</dim>
					<dim>1</dim>
				</port>
			</input>
			<output>
				<port id="1" precision="FP32">
					<dim>1</dim>
					<dim>16</dim>
					<dim>1</dim>
					<dim>1</dim>
				</port>
			</output>
		</layer>
		<layer id="12" name="186" type="Add" version="opset1">
			<data auto_broadcast="numpy" />
			<input>
				<port id="0" precision="FP32">
					<dim>1</dim>
					<dim>16</dim>
					<dim>120</dim>
					<dim>160</dim>
				</port>
				<port id="1" precision="FP32">
					<dim>1</dim>
					<dim>16</dim>
					<dim>1</dim>
					<dim>1</dim>
				</port>
			</input>
			<output>
				<port id="2" precision="FP32" names="186">
					<dim>1</dim>
					<dim>16</dim>
					<dim>120</dim>
					<dim>160</dim>
				</port>
			</output>
		</layer>
		<layer id="13" name="187" type="ReLU" version="opset1">
			<input>
				<port id="0" precision="FP32">
					<dim>1</dim>
					<dim>16</dim>
					<dim>120</dim>
					<dim>160</dim>
				</port>
			</input>
			<output>
				<port id="1" precision="FP32" names="187">
					<dim>1</dim>
					<dim>16</dim>
					<dim>120</dim>
					<dim>160</dim>
				</port>
			</output>
		</layer>
		<layer id="14" name="Multiply_7480_compressed" type="Const" version="opset1">
			<data element_type="f16" shape="16, 1, 1, 3, 3" offset="908" size="288" />
			<output>
				<port id="0" precision="FP16">
					<dim>16</dim>
					<dim>1</dim>
					<dim>1</dim>
					<dim>3</dim>
					<dim>3</dim>
				</port>
			</output>
		</layer>
		<layer id="15" name="Multiply_7480" type="Convert" version="opset1">
			<data destination_type="f32" />
			<rt_info>
				<attribute name="decompression" version="0" />
			</rt_info>
			<input>
				<port id="0" precision="FP16">
					<dim>16</dim>
					<dim>1</dim>
					<dim>1</dim>
					<dim>3</dim>
					<dim>3</dim>
				</port>
			</input>
			<output>
				<port id="1" precision="FP32">
					<dim>16</dim>
					<dim>1</dim>
					<dim>1</dim>
					<dim>3</dim>
					<dim>3</dim>
				</port>
			</output>
		</layer>
		<layer id="16" name="Multiply_7303" type="GroupConvolution" version="opset1">
			<data strides="1, 1" pads_begin="1, 1" pads_end="1, 1" dilations="1, 1" auto_pad="explicit" />
			<input>
				<port id="0" precision="FP32">
					<dim>1</dim>
					<dim>16</dim>
					<dim>120</dim>
					<dim>160</dim>
				</port>
				<port id="1" precision="FP32">
					<dim>16</dim>
					<dim>1</dim>
					<dim>1</dim>
					<dim>3</dim>
					<dim>3</dim>
				</port>
			</input>
			<output>
				<port id="2" precision="FP32" names="188">
					<dim>1</dim>
					<dim>16</dim>
					<dim>120</dim>
					<dim>160</dim>
				</port>
			</output>
		</layer>
		<layer id="17" name="Constant_7308_compressed" type="Const" version="opset1">
			<data element_type="f16" shape="1, 16, 1, 1" offset="1196" size="32" />
			<output>
				<port id="0" precision="FP16">
					<dim>1</dim>
					<dim>16</dim>
					<dim>1</dim>
					<dim>1</dim>
				</port>
			</output>
		</layer>
		<layer id="18" name="Constant_7308" type="Convert" version="opset1">
			<data destination_type="f32" />
			<rt_info>
				<attribute name="decompression" version="0" />
			</rt_info>
			<input>
				<port id="0" precision="FP16">
					<dim>1</dim>
					<dim>16</dim>
					<dim>1</dim>
					<dim>1</dim>
				</port>
			</input>
			<output>
				<port id="1" precision="FP32">
					<dim>1</dim>
					<dim>16</dim>
					<dim>1</dim>
					<dim>1</dim>
				</port>
			</output>
		</layer>
		<layer id="19" name="189" type="Add" version="opset1">
			<data auto_broadcast="numpy" />
			<input>
				<port id="0" precision="FP32">
					<dim>1</dim>
					<dim>16</dim>
					<dim>120</dim>
					<dim>160</dim>
				</port>
				<port id="1" precision="FP32">
					<dim>1</dim>
					<dim>16</dim>
					<dim>1</dim>
					<dim>1</dim>
				</port>
			</input>
			<output>
				<port id="2" precision="FP32" names="189">
					<dim>1</dim>
					<dim>16</dim>
					<dim>120</dim>
					<dim>160</dim>
				</port>
			</output>
		</layer>
		<layer id="20" name="190" type="ReLU" version="opset1">
			<input>
				<port id="0" precision="FP32">
					<dim>1</dim>
					<dim>16</dim>
					<dim>120</dim>
					<dim>160</dim>
				</port>
			</input>
			<output>
				<port id="1" precision="FP32" names="190">
					<dim>1</dim>
					<dim>16</dim>
					<dim>120</dim>
					<dim>160</dim>
				</port>
			</output>
		</layer>
		<layer id="21" name="Multiply_7483_compressed" type="Const" version="opset1">
			<data element_type="f16" shape="32, 16, 1, 1" offset="1228" size="1024" />
			<output>
				<port id="0" precision="FP16">
					<dim>32</dim>
					<dim>16</dim>
					<dim>1</dim>
					<dim>1</dim>
				</port>
			</output>
		</layer>
		<layer id="22" name="Multiply_7483" type="Convert" version="opset1">
			<data destination_type="f32" />
			<rt_info>
				<attribute name="decompression" version="0" />
			</rt_info>
			<input>
				<port id="0" precision="FP16">
					<dim>32</dim>
					<dim>16</dim>
					<dim>1</dim>
					<dim>1</dim>
				</port>
			</input>
			<output>
				<port id="1" precision="FP32">
					<dim>32</dim>
					<dim>16</dim>
					<dim>1</dim>
					<dim>1</dim>
				</port>
			</output>
		</layer>
		<layer id="23" name="Multiply_7310" type="Convolution" version="opset1">
			<data strides="1, 1" dilations="1, 1" pads_begin="0, 0" pads_end="0, 0" auto_pad="explicit" />
			<input>
				<port id="0" precision="FP32">
					<dim>1</dim>
					<dim>16</dim>
					<dim>120</dim>
					<dim>160</dim>
				</port>
				<port id="1" precision="FP32">
					<dim>32</dim>
					<dim>16</dim>
					<dim>1</dim>
					<dim>1</dim>
				</port>
			</input>
			<output>
				<port id="2" precision="FP32">
					<dim>1</dim>
					<dim>32</dim>
					<dim>120</dim>
					<dim>160</dim>
				</port>
			</output>
		</layer>
		<layer id="24" name="Constant_7315_compressed" type="Const" version="opset1">
			<data element_type="f16" shape="1, 32, 1, 1" offset="2252" size="64" />
			<output>
				<port id="0" precision="FP16">
					<dim>1</dim>
					<dim>32</dim>
					<dim>1</dim>
					<dim>1</dim>
				</port>
			</output>
		</layer>
		<layer id="25" name="Constant_7315" type="Convert" version="opset1">
			<data destination_type="f32" />
			<rt_info>
				<attribute name="decompression" version="0" />
			</rt_info>
			<input>
				<port id="0" precision="FP16">
					<dim>1</dim>
					<dim>32</dim>
					<dim>1</dim>
					<dim>1</dim>
				</port>
			</input>
			<output>
				<port id="1" precision="FP32">
					<dim>1</dim>
					<dim>32</dim>
					<dim>1</dim>
					<dim>1</dim>
				</port>
			</output>
		</layer>
		<layer id="26" name="192" type="Add" version="opset1">
			<data auto_broadcast="numpy" />
			<input>
				<port id="0" precision="FP32">
					<dim>1</dim>
					<dim>32</dim>
					<dim>120</dim>
					<dim>160</dim>
				</port>
				<port id="1" precision="FP32">
					<dim>1</dim>
					<dim>32</dim>
					<dim>1</dim>
					<dim>1</dim>
				</port>
			</input>
			<output>
				<port id="2" precision="FP32" names="192">
					<dim>1</dim>
					<dim>32</dim>
					<dim>120</dim>
					<dim>160</dim>
				</port>
			</output>
		</layer>
		<layer id="27" name="193" type="ReLU" version="opset1">
			<input>
				<port id="0" precision="FP32">
					<dim>1</dim>
					<dim>32</dim>
					<dim>120</dim>
					<dim>160</dim>
				</port>
			</input>
			<output>
				<port id="1" precision="FP32" names="193">
					<dim>1</dim>
					<dim>32</dim>
					<dim>120</dim>
					<dim>160</dim>
				</port>
			</output>
		</layer>
		<layer id="28" name="Multiply_7487_compressed" type="Const" version="opset1">
			<data element_type="f16" shape="32, 1, 1, 3, 3" offset="2316" size="576" />
			<output>
				<port id="0" precision="FP16">
					<dim>32</dim>
					<dim>1</dim>
					<dim>1</dim>
					<dim>3</dim>
					<dim>3</dim>
				</port>
			</output>
		</layer>
		<layer id="29" name="Multiply_7487" type="Convert" version="opset1">
			<data destination_type="f32" />
			<rt_info>
				<attribute name="decompression" version="0" />
			</rt_info>
			<input>
				<port id="0" precision="FP16">
					<dim>32</dim>
					<dim>1</dim>
					<dim>1</dim>
					<dim>3</dim>
					<dim>3</dim>
				</port>
			</input>
			<output>
				<port id="1" precision="FP32">
					<dim>32</dim>
					<dim>1</dim>
					<dim>1</dim>
					<dim>3</dim>
					<dim>3</dim>
				</port>
			</output>
		</layer>
		<layer id="30" name="Multiply_7317" type="GroupConvolution" version="opset1">
			<data strides="2, 2" pads_begin="1, 1" pads_end="1, 1" dilations="1, 1" auto_pad="explicit" />
			<input>
				<port id="0" precision="FP32">
					<dim>1</dim>
					<dim>32</dim>
					<dim>120</dim>
					<dim>160</dim>
				</port>
				<port id="1" precision="FP32">
					<dim>32</dim>
					<dim>1</dim>
					<dim>1</dim>
					<dim>3</dim>
					<dim>3</dim>
				</port>
			</input>
			<output>
				<port id="2" precision="FP32" names="194">
					<dim>1</dim>
					<dim>32</dim>
					<dim>60</dim>
					<dim>80</dim>
				</port>
			</output>
		</layer>
		<layer id="31" name="Constant_7322_compressed" type="Const" version="opset1">
			<data element_type="f16" shape="1, 32, 1, 1" offset="2892" size="64" />
			<output>
				<port id="0" precision="FP16">
					<dim>1</dim>
					<dim>32</dim>
					<dim>1</dim>
					<dim>1</dim>
				</port>
			</output>
		</layer>
		<layer id="32" name="Constant_7322" type="Convert" version="opset1">
			<data destination_type="f32" />
			<rt_info>
				<attribute name="decompression" version="0" />
			</rt_info>
			<input>
				<port id="0" precision="FP16">
					<dim>1</dim>
					<dim>32</dim>
					<dim>1</dim>
					<dim>1</dim>
				</port>
			</input>
			<output>
				<port id="1" precision="FP32">
					<dim>1</dim>
					<dim>32</dim>
					<dim>1</dim>
					<dim>1</dim>
				</port>
			</output>
		</layer>
		<layer id="33" name="195" type="Add" version="opset1">
			<data auto_broadcast="numpy" />
			<input>
				<port id="0" precision="FP32">
					<dim>1</dim>
					<dim>32</dim>
					<dim>60</dim>
					<dim>80</dim>
				</port>
				<port id="1" precision="FP32">
					<dim>1</dim>
					<dim>32</dim>
					<dim>1</dim>
					<dim>1</dim>
				</port>
			</input>
			<output>
				<port id="2" precision="FP32" names="195">
					<dim>1</dim>
					<dim>32</dim>
					<dim>60</dim>
					<dim>80</dim>
				</port>
			</output>
		</layer>
		<layer id="34" name="196" type="ReLU" version="opset1">
			<input>
				<port id="0" precision="FP32">
					<dim>1</dim>
					<dim>32</dim>
					<dim>60</dim>
					<dim>80</dim>
				</port>
			</input>
			<output>
				<port id="1" precision="FP32" names="196">
					<dim>1</dim>
					<dim>32</dim>
					<dim>60</dim>
					<dim>80</dim>
				</port>
			</output>
		</layer>
		<layer id="35" name="Multiply_7490_compressed" type="Const" version="opset1">
			<data element_type="f16" shape="32, 32, 1, 1" offset="2956" size="2048" />
			<output>
				<port id="0" precision="FP16">
					<dim>32</dim>
					<dim>32</dim>
					<dim>1</dim>
					<dim>1</dim>
				</port>
			</output>
		</layer>
		<layer id="36" name="Multiply_7490" type="Convert" version="opset1">
			<data destination_type="f32" />
			<rt_info>
				<attribute name="decompression" version="0" />
			</rt_info>
			<input>
				<port id="0" precision="FP16">
					<dim>32</dim>
					<dim>32</dim>
					<dim>1</dim>
					<dim>1</dim>
				</port>
			</input>
			<output>
				<port id="1" precision="FP32">
					<dim>32</dim>
					<dim>32</dim>
					<dim>1</dim>
					<dim>1</dim>
				</port>
			</output>
		</layer>
		<layer id="37" name="Multiply_7324" type="Convolution" version="opset1">
			<data strides="1, 1" dilations="1, 1" pads_begin="0, 0" pads_end="0, 0" auto_pad="explicit" />
			<input>
				<port id="0" precision="FP32">
					<dim>1</dim>
					<dim>32</dim>
					<dim>60</dim>
					<dim>80</dim>
				</port>
				<port id="1" precision="FP32">
					<dim>32</dim>
					<dim>32</dim>
					<dim>1</dim>
					<dim>1</dim>
				</port>
			</input>
			<output>
				<port id="2" precision="FP32">
					<dim>1</dim>
					<dim>32</dim>
					<dim>60</dim>
					<dim>80</dim>
				</port>
			</output>
		</layer>
		<layer id="38" name="Constant_7329_compressed" type="Const" version="opset1">
			<data element_type="f16" shape="1, 32, 1, 1" offset="5004" size="64" />
			<output>
				<port id="0" precision="FP16">
					<dim>1</dim>
					<dim>32</dim>
					<dim>1</dim>
					<dim>1</dim>
				</port>
			</output>
		</layer>
		<layer id="39" name="Constant_7329" type="Convert" version="opset1">
			<data destination_type="f32" />
			<rt_info>
				<attribute name="decompression" version="0" />
			</rt_info>
			<input>
				<port id="0" precision="FP16">
					<dim>1</dim>
					<dim>32</dim>
					<dim>1</dim>
					<dim>1</dim>
				</port>
			</input>
			<output>
				<port id="1" precision="FP32">
					<dim>1</dim>
					<dim>32</dim>
					<dim>1</dim>
					<dim>1</dim>
				</port>
			</output>
		</layer>
		<layer id="40" name="198" type="Add" version="opset1">
			<data auto_broadcast="numpy" />
			<input>
				<port id="0" precision="FP32">
					<dim>1</dim>
					<dim>32</dim>
					<dim>60</dim>
					<dim>80</dim>
				</port>
				<port id="1" precision="FP32">
					<dim>1</dim>
					<dim>32</dim>
					<dim>1</dim>
					<dim>1</dim>
				</port>
			</input>
			<output>
				<port id="2" precision="FP32" names="198">
					<dim>1</dim>
					<dim>32</dim>
					<dim>60</dim>
					<dim>80</dim>
				</port>
			</output>
		</layer>
		<layer id="41" name="199" type="ReLU" version="opset1">
			<input>
				<port id="0" precision="FP32">
					<dim>1</dim>
					<dim>32</dim>
					<dim>60</dim>
					<dim>80</dim>
				</port>
			</input>
			<output>
				<port id="1" precision="FP32" names="199">
					<dim>1</dim>
					<dim>32</dim>
					<dim>60</dim>
					<dim>80</dim>
				</port>
			</output>
		</layer>
		<layer id="42" name="Multiply_7494_compressed" type="Const" version="opset1">
			<data element_type="f16" shape="32, 1, 1, 3, 3" offset="5068" size="576" />
			<output>
				<port id="0" precision="FP16">
					<dim>32</dim>
					<dim>1</dim>
					<dim>1</dim>
					<dim>3</dim>
					<dim>3</dim>
				</port>
			</output>
		</layer>
		<layer id="43" name="Multiply_7494" type="Convert" version="opset1">
			<data destination_type="f32" />
			<rt_info>
				<attribute name="decompression" version="0" />
			</rt_info>
			<input>
				<port id="0" precision="FP16">
					<dim>32</dim>
					<dim>1</dim>
					<dim>1</dim>
					<dim>3</dim>
					<dim>3</dim>
				</port>
			</input>
			<output>
				<port id="1" precision="FP32">
					<dim>32</dim>
					<dim>1</dim>
					<dim>1</dim>
					<dim>3</dim>
					<dim>3</dim>
				</port>
			</output>
		</layer>
		<layer id="44" name="Multiply_7331" type="GroupConvolution" version="opset1">
			<data strides="1, 1" pads_begin="1, 1" pads_end="1, 1" dilations="1, 1" auto_pad="explicit" />
			<input>
				<port id="0" precision="FP32">
					<dim>1</dim>
					<dim>32</dim>
					<dim>60</dim>
					<dim>80</dim>
				</port>
				<port id="1" precision="FP32">
					<dim>32</dim>
					<dim>1</dim>
					<dim>1</dim>
					<dim>3</dim>
					<dim>3</dim>
				</port>
			</input>
			<output>
				<port id="2" precision="FP32" names="200">
					<dim>1</dim>
					<dim>32</dim>
					<dim>60</dim>
					<dim>80</dim>
				</port>
			</output>
		</layer>
		<layer id="45" name="Constant_7336_compressed" type="Const" version="opset1">
			<data element_type="f16" shape="1, 32, 1, 1" offset="5644" size="64" />
			<output>
				<port id="0" precision="FP16">
					<dim>1</dim>
					<dim>32</dim>
					<dim>1</dim>
					<dim>1</dim>
				</port>
			</output>
		</layer>
		<layer id="46" name="Constant_7336" type="Convert" version="opset1">
			<data destination_type="f32" />
			<rt_info>
				<attribute name="decompression" version="0" />
			</rt_info>
			<input>
				<port id="0" precision="FP16">
					<dim>1</dim>
					<dim>32</dim>
					<dim>1</dim>
					<dim>1</dim>
				</port>
			</input>
			<output>
				<port id="1" precision="FP32">
					<dim>1</dim>
					<dim>32</dim>
					<dim>1</dim>
					<dim>1</dim>
				</port>
			</output>
		</layer>
		<layer id="47" name="201" type="Add" version="opset1">
			<data auto_broadcast="numpy" />
			<input>
				<port id="0" precision="FP32">
					<dim>1</dim>
					<dim>32</dim>
					<dim>60</dim>
					<dim>80</dim>
				</port>
				<port id="1" precision="FP32">
					<dim>1</dim>
					<dim>32</dim>
					<dim>1</dim>
					<dim>1</dim>
				</port>
			</input>
			<output>
				<port id="2" precision="FP32" names="201">
					<dim>1</dim>
					<dim>32</dim>
					<dim>60</dim>
					<dim>80</dim>
				</port>
			</output>
		</layer>
		<layer id="48" name="202" type="ReLU" version="opset1">
			<input>
				<port id="0" precision="FP32">
					<dim>1</dim>
					<dim>32</dim>
					<dim>60</dim>
					<dim>80</dim>
				</port>
			</input>
			<output>
				<port id="1" precision="FP32" names="202">
					<dim>1</dim>
					<dim>32</dim>
					<dim>60</dim>
					<dim>80</dim>
				</port>
			</output>
		</layer>
		<layer id="49" name="Multiply_7497_compressed" type="Const" version="opset1">
			<data element_type="f16" shape="32, 32, 1, 1" offset="5708" size="2048" />
			<output>
				<port id="0" precision="FP16">
					<dim>32</dim>
					<dim>32</dim>
					<dim>1</dim>
					<dim>1</dim>
				</port>
			</output>
		</layer>
		<layer id="50" name="Multiply_7497" type="Convert" version="opset1">
			<data destination_type="f32" />
			<rt_info>
				<attribute name="decompression" version="0" />
			</rt_info>
			<input>
				<port id="0" precision="FP16">
					<dim>32</dim>
					<dim>32</dim>
					<dim>1</dim>
					<dim>1</dim>
				</port>
			</input>
			<output>
				<port id="1" precision="FP32">
					<dim>32</dim>
					<dim>32</dim>
					<dim>1</dim>
					<dim>1</dim>
				</port>
			</output>
		</layer>
		<layer id="51" name="Multiply_7338" type="Convolution" version="opset1">
			<data strides="1, 1" dilations="1, 1" pads_begin="0, 0" pads_end="0, 0" auto_pad="explicit" />
			<input>
				<port id="0" precision="FP32">
					<dim>1</dim>
					<dim>32</dim>
					<dim>60</dim>
					<dim>80</dim>
				</port>
				<port id="1" precision="FP32">
					<dim>32</dim>
					<dim>32</dim>
					<dim>1</dim>
					<dim>1</dim>
				</port>
			</input>
			<output>
				<port id="2" precision="FP32">
					<dim>1</dim>
					<dim>32</dim>
					<dim>60</dim>
					<dim>80</dim>
				</port>
			</output>
		</layer>
		<layer id="52" name="Constant_7343_compressed" type="Const" version="opset1">
			<data element_type="f16" shape="1, 32, 1, 1" offset="7756" size="64" />
			<output>
				<port id="0" precision="FP16">
					<dim>1</dim>
					<dim>32</dim>
					<dim>1</dim>
					<dim>1</dim>
				</port>
			</output>
		</layer>
		<layer id="53" name="Constant_7343" type="Convert" version="opset1">
			<data destination_type="f32" />
			<rt_info>
				<attribute name="decompression" version="0" />
			</rt_info>
			<input>
				<port id="0" precision="FP16">
					<dim>1</dim>
					<dim>32</dim>
					<dim>1</dim>
					<dim>1</dim>
				</port>
			</input>
			<output>
				<port id="1" precision="FP32">
					<dim>1</dim>
					<dim>32</dim>
					<dim>1</dim>
					<dim>1</dim>
				</port>
			</output>
		</layer>
		<layer id="54" name="204" type="Add" version="opset1">
			<data auto_broadcast="numpy" />
			<input>
				<port id="0" precision="FP32">
					<dim>1</dim>
					<dim>32</dim>
					<dim>60</dim>
					<dim>80</dim>
				</port>
				<port id="1" precision="FP32">
					<dim>1</dim>
					<dim>32</dim>
					<dim>1</dim>
					<dim>1</dim>
				</port>
			</input>
			<output>
				<port id="2" precision="FP32" names="204">
					<dim>1</dim>
					<dim>32</dim>
					<dim>60</dim>
					<dim>80</dim>
				</port>
			</output>
		</layer>
		<layer id="55" name="205" type="ReLU" version="opset1">
			<input>
				<port id="0" precision="FP32">
					<dim>1</dim>
					<dim>32</dim>
					<dim>60</dim>
					<dim>80</dim>
				</port>
			</input>
			<output>
				<port id="1" precision="FP32" names="205">
					<dim>1</dim>
					<dim>32</dim>
					<dim>60</dim>
					<dim>80</dim>
				</port>
			</output>
		</layer>
		<layer id="56" name="Multiply_7501_compressed" type="Const" version="opset1">
			<data element_type="f16" shape="32, 1, 1, 3, 3" offset="7820" size="576" />
			<output>
				<port id="0" precision="FP16">
					<dim>32</dim>
					<dim>1</dim>
					<dim>1</dim>
					<dim>3</dim>
					<dim>3</dim>
				</port>
			</output>
		</layer>
		<layer id="57" name="Multiply_7501" type="Convert" version="opset1">
			<data destination_type="f32" />
			<rt_info>
				<attribute name="decompression" version="0" />
			</rt_info>
			<input>
				<port id="0" precision="FP16">
					<dim>32</dim>
					<dim>1</dim>
					<dim>1</dim>
					<dim>3</dim>
					<dim>3</dim>
				</port>
			</input>
			<output>
				<port id="1" precision="FP32">
					<dim>32</dim>
					<dim>1</dim>
					<dim>1</dim>
					<dim>3</dim>
					<dim>3</dim>
				</port>
			</output>
		</layer>
		<layer id="58" name="Multiply_7345" type="GroupConvolution" version="opset1">
			<data strides="2, 2" pads_begin="1, 1" pads_end="1, 1" dilations="1, 1" auto_pad="explicit" />
			<input>
				<port id="0" precision="FP32">
					<dim>1</dim>
					<dim>32</dim>
					<dim>60</dim>
					<dim>80</dim>
				</port>
				<port id="1" precision="FP32">
					<dim>32</dim>
					<dim>1</dim>
					<dim>1</dim>
					<dim>3</dim>
					<dim>3</dim>
				</port>
			</input>
			<output>
				<port id="2" precision="FP32" names="206">
					<dim>1</dim>
					<dim>32</dim>
					<dim>30</dim>
					<dim>40</dim>
				</port>
			</output>
		</layer>
		<layer id="59" name="Constant_7350_compressed" type="Const" version="opset1">
			<data element_type="f16" shape="1, 32, 1, 1" offset="8396" size="64" />
			<output>
				<port id="0" precision="FP16">
					<dim>1</dim>
					<dim>32</dim>
					<dim>1</dim>
					<dim>1</dim>
				</port>
			</output>
		</layer>
		<layer id="60" name="Constant_7350" type="Convert" version="opset1">
			<data destination_type="f32" />
			<rt_info>
				<attribute name="decompression" version="0" />
			</rt_info>
			<input>
				<port id="0" precision="FP16">
					<dim>1</dim>
					<dim>32</dim>
					<dim>1</dim>
					<dim>1</dim>
				</port>
			</input>
			<output>
				<port id="1" precision="FP32">
					<dim>1</dim>
					<dim>32</dim>
					<dim>1</dim>
					<dim>1</dim>
				</port>
			</output>
		</layer>
		<layer id="61" name="207" type="Add" version="opset1">
			<data auto_broadcast="numpy" />
			<input>
				<port id="0" precision="FP32">
					<dim>1</dim>
					<dim>32</dim>
					<dim>30</dim>
					<dim>40</dim>
				</port>
				<port id="1" precision="FP32">
					<dim>1</dim>
					<dim>32</dim>
					<dim>1</dim>
					<dim>1</dim>
				</port>
			</input>
			<output>
				<port id="2" precision="FP32" names="207">
					<dim>1</dim>
					<dim>32</dim>
					<dim>30</dim>
					<dim>40</dim>
				</port>
			</output>
		</layer>
		<layer id="62" name="208" type="ReLU" version="opset1">
			<input>
				<port id="0" precision="FP32">
					<dim>1</dim>
					<dim>32</dim>
					<dim>30</dim>
					<dim>40</dim>
				</port>
			</input>
			<output>
				<port id="1" precision="FP32" names="208">
					<dim>1</dim>
					<dim>32</dim>
					<dim>30</dim>
					<dim>40</dim>
				</port>
			</output>
		</layer>
		<layer id="63" name="Multiply_7504_compressed" type="Const" version="opset1">
			<data element_type="f16" shape="64, 32, 1, 1" offset="8460" size="4096" />
			<output>
				<port id="0" precision="FP16">
					<dim>64</dim>
					<dim>32</dim>
					<dim>1</dim>
					<dim>1</dim>
				</port>
			</output>
		</layer>
		<layer id="64" name="Multiply_7504" type="Convert" version="opset1">
			<data destination_type="f32" />
			<rt_info>
				<attribute name="decompression" version="0" />
			</rt_info>
			<input>
				<port id="0" precision="FP16">
					<dim>64</dim>
					<dim>32</dim>
					<dim>1</dim>
					<dim>1</dim>
				</port>
			</input>
			<output>
				<port id="1" precision="FP32">
					<dim>64</dim>
					<dim>32</dim>
					<dim>1</dim>
					<dim>1</dim>
				</port>
			</output>
		</layer>
		<layer id="65" name="Multiply_7352" type="Convolution" version="opset1">
			<data strides="1, 1" dilations="1, 1" pads_begin="0, 0" pads_end="0, 0" auto_pad="explicit" />
			<input>
				<port id="0" precision="FP32">
					<dim>1</dim>
					<dim>32</dim>
					<dim>30</dim>
					<dim>40</dim>
				</port>
				<port id="1" precision="FP32">
					<dim>64</dim>
					<dim>32</dim>
					<dim>1</dim>
					<dim>1</dim>
				</port>
			</input>
			<output>
				<port id="2" precision="FP32">
					<dim>1</dim>
					<dim>64</dim>
					<dim>30</dim>
					<dim>40</dim>
				</port>
			</output>
		</layer>
		<layer id="66" name="Constant_7357_compressed" type="Const" version="opset1">
			<data element_type="f16" shape="1, 64, 1, 1" offset="12556" size="128" />
			<output>
				<port id="0" precision="FP16">
					<dim>1</dim>
					<dim>64</dim>
					<dim>1</dim>
					<dim>1</dim>
				</port>
			</output>
		</layer>
		<layer id="67" name="Constant_7357" type="Convert" version="opset1">
			<data destination_type="f32" />
			<rt_info>
				<attribute name="decompression" version="0" />
			</rt_info>
			<input>
				<port id="0" precision="FP16">
					<dim>1</dim>
					<dim>64</dim>
					<dim>1</dim>
					<dim>1</dim>
				</port>
			</input>
			<output>
				<port id="1" precision="FP32">
					<dim>1</dim>
					<dim>64</dim>
					<dim>1</dim>
					<dim>1</dim>
				</port>
			</output>
		</layer>
		<layer id="68" name="210" type="Add" version="opset1">
			<data auto_broadcast="numpy" />
			<input>
				<port id="0" precision="FP32">
					<dim>1</dim>
					<dim>64</dim>
					<dim>30</dim>
					<dim>40</dim>
				</port>
				<port id="1" precision="FP32">
					<dim>1</dim>
					<dim>64</dim>
					<dim>1</dim>
					<dim>1</dim>
				</port>
			</input>
			<output>
				<port id="2" precision="FP32" names="210">
					<dim>1</dim>
					<dim>64</dim>
					<dim>30</dim>
					<dim>40</dim>
				</port>
			</output>
		</layer>
		<layer id="69" name="211" type="ReLU" version="opset1">
			<input>
				<port id="0" precision="FP32">
					<dim>1</dim>
					<dim>64</dim>
					<dim>30</dim>
					<dim>40</dim>
				</port>
			</input>
			<output>
				<port id="1" precision="FP32" names="211">
					<dim>1</dim>
					<dim>64</dim>
					<dim>30</dim>
					<dim>40</dim>
				</port>
			</output>
		</layer>
		<layer id="70" name="Multiply_7508_compressed" type="Const" version="opset1">
			<data element_type="f16" shape="64, 1, 1, 3, 3" offset="12684" size="1152" />
			<output>
				<port id="0" precision="FP16">
					<dim>64</dim>
					<dim>1</dim>
					<dim>1</dim>
					<dim>3</dim>
					<dim>3</dim>
				</port>
			</output>
		</layer>
		<layer id="71" name="Multiply_7508" type="Convert" version="opset1">
			<data destination_type="f32" />
			<rt_info>
				<attribute name="decompression" version="0" />
			</rt_info>
			<input>
				<port id="0" precision="FP16">
					<dim>64</dim>
					<dim>1</dim>
					<dim>1</dim>
					<dim>3</dim>
					<dim>3</dim>
				</port>
			</input>
			<output>
				<port id="1" precision="FP32">
					<dim>64</dim>
					<dim>1</dim>
					<dim>1</dim>
					<dim>3</dim>
					<dim>3</dim>
				</port>
			</output>
		</layer>
		<layer id="72" name="Multiply_7359" type="GroupConvolution" version="opset1">
			<data strides="1, 1" pads_begin="1, 1" pads_end="1, 1" dilations="1, 1" auto_pad="explicit" />
			<input>
				<port id="0" precision="FP32">
					<dim>1</dim>
					<dim>64</dim>
					<dim>30</dim>
					<dim>40</dim>
				</port>
				<port id="1" precision="FP32">
					<dim>64</dim>
					<dim>1</dim>
					<dim>1</dim>
					<dim>3</dim>
					<dim>3</dim>
				</port>
			</input>
			<output>
				<port id="2" precision="FP32" names="212">
					<dim>1</dim>
					<dim>64</dim>
					<dim>30</dim>
					<dim>40</dim>
				</port>
			</output>
		</layer>
		<layer id="73" name="Constant_7364_compressed" type="Const" version="opset1">
			<data element_type="f16" shape="1, 64, 1, 1" offset="13836" size="128" />
			<output>
				<port id="0" precision="FP16">
					<dim>1</dim>
					<dim>64</dim>
					<dim>1</dim>
					<dim>1</dim>
				</port>
			</output>
		</layer>
		<layer id="74" name="Constant_7364" type="Convert" version="opset1">
			<data destination_type="f32" />
			<rt_info>
				<attribute name="decompression" version="0" />
			</rt_info>
			<input>
				<port id="0" precision="FP16">
					<dim>1</dim>
					<dim>64</dim>
					<dim>1</dim>
					<dim>1</dim>
				</port>
			</input>
			<output>
				<port id="1" precision="FP32">
					<dim>1</dim>
					<dim>64</dim>
					<dim>1</dim>
					<dim>1</dim>
				</port>
			</output>
		</layer>
		<layer id="75" name="213" type="Add" version="opset1">
			<data auto_broadcast="numpy" />
			<input>
				<port id="0" precision="FP32">
					<dim>1</dim>
					<dim>64</dim>
					<dim>30</dim>
					<dim>40</dim>
				</port>
				<port id="1" precision="FP32">
					<dim>1</dim>
					<dim>64</dim>
					<dim>1</dim>
					<dim>1</dim>
				</port>
			</input>
			<output>
				<port id="2" precision="FP32" names="213">
					<dim>1</dim>
					<dim>64</dim>
					<dim>30</dim>
					<dim>40</dim>
				</port>
			</output>
		</layer>
		<layer id="76" name="214" type="ReLU" version="opset1">
			<input>
				<port id="0" precision="FP32">
					<dim>1</dim>
					<dim>64</dim>
					<dim>30</dim>
					<dim>40</dim>
				</port>
			</input>
			<output>
				<port id="1" precision="FP32" names="214">
					<dim>1</dim>
					<dim>64</dim>
					<dim>30</dim>
					<dim>40</dim>
				</port>
			</output>
		</layer>
		<layer id="77" name="Multiply_7511_compressed" type="Const" version="opset1">
			<data element_type="f16" shape="64, 64, 1, 1" offset="13964" size="8192" />
			<output>
				<port id="0" precision="FP16">
					<dim>64</dim>
					<dim>64</dim>
					<dim>1</dim>
					<dim>1</dim>
				</port>
			</output>
		</layer>
		<layer id="78" name="Multiply_7511" type="Convert" version="opset1">
			<data destination_type="f32" />
			<rt_info>
				<attribute name="decompression" version="0" />
			</rt_info>
			<input>
				<port id="0" precision="FP16">
					<dim>64</dim>
					<dim>64</dim>
					<dim>1</dim>
					<dim>1</dim>
				</port>
			</input>
			<output>
				<port id="1" precision="FP32">
					<dim>64</dim>
					<dim>64</dim>
					<dim>1</dim>
					<dim>1</dim>
				</port>
			</output>
		</layer>
		<layer id="79" name="Multiply_7366" type="Convolution" version="opset1">
			<data strides="1, 1" dilations="1, 1" pads_begin="0, 0" pads_end="0, 0" auto_pad="explicit" />
			<input>
				<port id="0" precision="FP32">
					<dim>1</dim>
					<dim>64</dim>
					<dim>30</dim>
					<dim>40</dim>
				</port>
				<port id="1" precision="FP32">
					<dim>64</dim>
					<dim>64</dim>
					<dim>1</dim>
					<dim>1</dim>
				</port>
			</input>
			<output>
				<port id="2" precision="FP32">
					<dim>1</dim>
					<dim>64</dim>
					<dim>30</dim>
					<dim>40</dim>
				</port>
			</output>
		</layer>
		<layer id="80" name="Constant_7371_compressed" type="Const" version="opset1">
			<data element_type="f16" shape="1, 64, 1, 1" offset="22156" size="128" />
			<output>
				<port id="0" precision="FP16">
					<dim>1</dim>
					<dim>64</dim>
					<dim>1</dim>
					<dim>1</dim>
				</port>
			</output>
		</layer>
		<layer id="81" name="Constant_7371" type="Convert" version="opset1">
			<data destination_type="f32" />
			<rt_info>
				<attribute name="decompression" version="0" />
			</rt_info>
			<input>
				<port id="0" precision="FP16">
					<dim>1</dim>
					<dim>64</dim>
					<dim>1</dim>
					<dim>1</dim>
				</port>
			</input>
			<output>
				<port id="1" precision="FP32">
					<dim>1</dim>
					<dim>64</dim>
					<dim>1</dim>
					<dim>1</dim>
				</port>
			</output>
		</layer>
		<layer id="82" name="216" type="Add" version="opset1">
			<data auto_broadcast="numpy" />
			<input>
				<port id="0" precision="FP32">
					<dim>1</dim>
					<dim>64</dim>
					<dim>30</dim>
					<dim>40</dim>
				</port>
				<port id="1" precision="FP32">
					<dim>1</dim>
					<dim>64</dim>
					<dim>1</dim>
					<dim>1</dim>
				</port>
			</input>
			<output>
				<port id="2" precision="FP32" names="216">
					<dim>1</dim>
					<dim>64</dim>
					<dim>30</dim>
					<dim>40</dim>
				</port>
			</output>
		</layer>
		<layer id="83" name="217" type="ReLU" version="opset1">
			<input>
				<port id="0" precision="FP32">
					<dim>1</dim>
					<dim>64</dim>
					<dim>30</dim>
					<dim>40</dim>
				</port>
			</input>
			<output>
				<port id="1" precision="FP32" names="217">
					<dim>1</dim>
					<dim>64</dim>
					<dim>30</dim>
					<dim>40</dim>
				</port>
			</output>
		</layer>
		<layer id="84" name="Multiply_7515_compressed" type="Const" version="opset1">
			<data element_type="f16" shape="64, 1, 1, 3, 3" offset="22284" size="1152" />
			<output>
				<port id="0" precision="FP16">
					<dim>64</dim>
					<dim>1</dim>
					<dim>1</dim>
					<dim>3</dim>
					<dim>3</dim>
				</port>
			</output>
		</layer>
		<layer id="85" name="Multiply_7515" type="Convert" version="opset1">
			<data destination_type="f32" />
			<rt_info>
				<attribute name="decompression" version="0" />
			</rt_info>
			<input>
				<port id="0" precision="FP16">
					<dim>64</dim>
					<dim>1</dim>
					<dim>1</dim>
					<dim>3</dim>
					<dim>3</dim>
				</port>
			</input>
			<output>
				<port id="1" precision="FP32">
					<dim>64</dim>
					<dim>1</dim>
					<dim>1</dim>
					<dim>3</dim>
					<dim>3</dim>
				</port>
			</output>
		</layer>
		<layer id="86" name="Multiply_7373" type="GroupConvolution" version="opset1">
			<data strides="1, 1" pads_begin="1, 1" pads_end="1, 1" dilations="1, 1" auto_pad="explicit" />
			<input>
				<port id="0" precision="FP32">
					<dim>1</dim>
					<dim>64</dim>
					<dim>30</dim>
					<dim>40</dim>
				</port>
				<port id="1" precision="FP32">
					<dim>64</dim>
					<dim>1</dim>
					<dim>1</dim>
					<dim>3</dim>
					<dim>3</dim>
				</port>
			</input>
			<output>
				<port id="2" precision="FP32" names="218">
					<dim>1</dim>
					<dim>64</dim>
					<dim>30</dim>
					<dim>40</dim>
				</port>
			</output>
		</layer>
		<layer id="87" name="Constant_7378_compressed" type="Const" version="opset1">
			<data element_type="f16" shape="1, 64, 1, 1" offset="23436" size="128" />
			<output>
				<port id="0" precision="FP16">
					<dim>1</dim>
					<dim>64</dim>
					<dim>1</dim>
					<dim>1</dim>
				</port>
			</output>
		</layer>
		<layer id="88" name="Constant_7378" type="Convert" version="opset1">
			<data destination_type="f32" />
			<rt_info>
				<attribute name="decompression" version="0" />
			</rt_info>
			<input>
				<port id="0" precision="FP16">
					<dim>1</dim>
					<dim>64</dim>
					<dim>1</dim>
					<dim>1</dim>
				</port>
			</input>
			<output>
				<port id="1" precision="FP32">
					<dim>1</dim>
					<dim>64</dim>
					<dim>1</dim>
					<dim>1</dim>
				</port>
			</output>
		</layer>
		<layer id="89" name="219" type="Add" version="opset1">
			<data auto_broadcast="numpy" />
			<input>
				<port id="0" precision="FP32">
					<dim>1</dim>
					<dim>64</dim>
					<dim>30</dim>
					<dim>40</dim>
				</port>
				<port id="1" precision="FP32">
					<dim>1</dim>
					<dim>64</dim>
					<dim>1</dim>
					<dim>1</dim>
				</port>
			</input>
			<output>
				<port id="2" precision="FP32" names="219">
					<dim>1</dim>
					<dim>64</dim>
					<dim>30</dim>
					<dim>40</dim>
				</port>
			</output>
		</layer>
		<layer id="90" name="220" type="ReLU" version="opset1">
			<input>
				<port id="0" precision="FP32">
					<dim>1</dim>
					<dim>64</dim>
					<dim>30</dim>
					<dim>40</dim>
				</port>
			</input>
			<output>
				<port id="1" precision="FP32" names="220">
					<dim>1</dim>
					<dim>64</dim>
					<dim>30</dim>
					<dim>40</dim>
				</port>
			</output>
		</layer>
		<layer id="91" name="Multiply_7518_compressed" type="Const" version="opset1">
			<data element_type="f16" shape="64, 64, 1, 1" offset="23564" size="8192" />
			<output>
				<port id="0" precision="FP16">
					<dim>64</dim>
					<dim>64</dim>
					<dim>1</dim>
					<dim>1</dim>
				</port>
			</output>
		</layer>
		<layer id="92" name="Multiply_7518" type="Convert" version="opset1">
			<data destination_type="f32" />
			<rt_info>
				<attribute name="decompression" version="0" />
			</rt_info>
			<input>
				<port id="0" precision="FP16">
					<dim>64</dim>
					<dim>64</dim>
					<dim>1</dim>
					<dim>1</dim>
				</port>
			</input>
			<output>
				<port id="1" precision="FP32">
					<dim>64</dim>
					<dim>64</dim>
					<dim>1</dim>
					<dim>1</dim>
				</port>
			</output>
		</layer>
		<layer id="93" name="Multiply_7380" type="Convolution" version="opset1">
			<data strides="1, 1" dilations="1, 1" pads_begin="0, 0" pads_end="0, 0" auto_pad="explicit" />
			<input>
				<port id="0" precision="FP32">
					<dim>1</dim>
					<dim>64</dim>
					<dim>30</dim>
					<dim>40</dim>
				</port>
				<port id="1" precision="FP32">
					<dim>64</dim>
					<dim>64</dim>
					<dim>1</dim>
					<dim>1</dim>
				</port>
			</input>
			<output>
				<port id="2" precision="FP32">
					<dim>1</dim>
					<dim>64</dim>
					<dim>30</dim>
					<dim>40</dim>
				</port>
			</output>
		</layer>
		<layer id="94" name="Constant_7385_compressed" type="Const" version="opset1">
			<data element_type="f16" shape="1, 64, 1, 1" offset="31756" size="128" />
			<output>
				<port id="0" precision="FP16">
					<dim>1</dim>
					<dim>64</dim>
					<dim>1</dim>
					<dim>1</dim>
				</port>
			</output>
		</layer>
		<layer id="95" name="Constant_7385" type="Convert" version="opset1">
			<data destination_type="f32" />
			<rt_info>
				<attribute name="decompression" version="0" />
			</rt_info>
			<input>
				<port id="0" precision="FP16">
					<dim>1</dim>
					<dim>64</dim>
					<dim>1</dim>
					<dim>1</dim>
				</port>
			</input>
			<output>
				<port id="1" precision="FP32">
					<dim>1</dim>
					<dim>64</dim>
					<dim>1</dim>
					<dim>1</dim>
				</port>
			</output>
		</layer>
		<layer id="96" name="222" type="Add" version="opset1">
			<data auto_broadcast="numpy" />
			<input>
				<port id="0" precision="FP32">
					<dim>1</dim>
					<dim>64</dim>
					<dim>30</dim>
					<dim>40</dim>
				</port>
				<port id="1" precision="FP32">
					<dim>1</dim>
					<dim>64</dim>
					<dim>1</dim>
					<dim>1</dim>
				</port>
			</input>
			<output>
				<port id="2" precision="FP32" names="222">
					<dim>1</dim>
					<dim>64</dim>
					<dim>30</dim>
					<dim>40</dim>
				</port>
			</output>
		</layer>
		<layer id="97" name="223" type="ReLU" version="opset1">
			<input>
				<port id="0" precision="FP32">
					<dim>1</dim>
					<dim>64</dim>
					<dim>30</dim>
					<dim>40</dim>
				</port>
			</input>
			<output>
				<port id="1" precision="FP32" names="223">
					<dim>1</dim>
					<dim>64</dim>
					<dim>30</dim>
					<dim>40</dim>
				</port>
			</output>
		</layer>
		<layer id="98" name="Multiply_7522_compressed" type="Const" version="opset1">
			<data element_type="f16" shape="64, 1, 1, 3, 3" offset="31884" size="1152" />
			<output>
				<port id="0" precision="FP16">
					<dim>64</dim>
					<dim>1</dim>
					<dim>1</dim>
					<dim>3</dim>
					<dim>3</dim>
				</port>
			</output>
		</layer>
		<layer id="99" name="Multiply_7522" type="Convert" version="opset1">
			<data destination_type="f32" />
			<rt_info>
				<attribute name="decompression" version="0" />
			</rt_info>
			<input>
				<port id="0" precision="FP16">
					<dim>64</dim>
					<dim>1</dim>
					<dim>1</dim>
					<dim>3</dim>
					<dim>3</dim>
				</port>
			</input>
			<output>
				<port id="1" precision="FP32">
					<dim>64</dim>
					<dim>1</dim>
					<dim>1</dim>
					<dim>3</dim>
					<dim>3</dim>
				</port>
			</output>
		</layer>
		<layer id="100" name="Multiply_7387" type="GroupConvolution" version="opset1">
			<data strides="1, 1" pads_begin="1, 1" pads_end="1, 1" dilations="1, 1" auto_pad="explicit" />
			<input>
				<port id="0" precision="FP32">
					<dim>1</dim>
					<dim>64</dim>
					<dim>30</dim>
					<dim>40</dim>
				</port>
				<port id="1" precision="FP32">
					<dim>64</dim>
					<dim>1</dim>
					<dim>1</dim>
					<dim>3</dim>
					<dim>3</dim>
				</port>
			</input>
			<output>
				<port id="2" precision="FP32" names="224">
					<dim>1</dim>
					<dim>64</dim>
					<dim>30</dim>
					<dim>40</dim>
				</port>
			</output>
		</layer>
		<layer id="101" name="Constant_7392_compressed" type="Const" version="opset1">
			<data element_type="f16" shape="1, 64, 1, 1" offset="33036" size="128" />
			<output>
				<port id="0" precision="FP16">
					<dim>1</dim>
					<dim>64</dim>
					<dim>1</dim>
					<dim>1</dim>
				</port>
			</output>
		</layer>
		<layer id="102" name="Constant_7392" type="Convert" version="opset1">
			<data destination_type="f32" />
			<rt_info>
				<attribute name="decompression" version="0" />
			</rt_info>
			<input>
				<port id="0" precision="FP16">
					<dim>1</dim>
					<dim>64</dim>
					<dim>1</dim>
					<dim>1</dim>
				</port>
			</input>
			<output>
				<port id="1" precision="FP32">
					<dim>1</dim>
					<dim>64</dim>
					<dim>1</dim>
					<dim>1</dim>
				</port>
			</output>
		</layer>
		<layer id="103" name="225" type="Add" version="opset1">
			<data auto_broadcast="numpy" />
			<input>
				<port id="0" precision="FP32">
					<dim>1</dim>
					<dim>64</dim>
					<dim>30</dim>
					<dim>40</dim>
				</port>
				<port id="1" precision="FP32">
					<dim>1</dim>
					<dim>64</dim>
					<dim>1</dim>
					<dim>1</dim>
				</port>
			</input>
			<output>
				<port id="2" precision="FP32" names="225">
					<dim>1</dim>
					<dim>64</dim>
					<dim>30</dim>
					<dim>40</dim>
				</port>
			</output>
		</layer>
		<layer id="104" name="226" type="ReLU" version="opset1">
			<input>
				<port id="0" precision="FP32">
					<dim>1</dim>
					<dim>64</dim>
					<dim>30</dim>
					<dim>40</dim>
				</port>
			</input>
			<output>
				<port id="1" precision="FP32" names="226">
					<dim>1</dim>
					<dim>64</dim>
					<dim>30</dim>
					<dim>40</dim>
				</port>
			</output>
		</layer>
		<layer id="105" name="Multiply_7525_compressed" type="Const" version="opset1">
			<data element_type="f16" shape="64, 64, 1, 1" offset="33164" size="8192" />
			<output>
				<port id="0" precision="FP16">
					<dim>64</dim>
					<dim>64</dim>
					<dim>1</dim>
					<dim>1</dim>
				</port>
			</output>
		</layer>
		<layer id="106" name="Multiply_7525" type="Convert" version="opset1">
			<data destination_type="f32" />
			<rt_info>
				<attribute name="decompression" version="0" />
			</rt_info>
			<input>
				<port id="0" precision="FP16">
					<dim>64</dim>
					<dim>64</dim>
					<dim>1</dim>
					<dim>1</dim>
				</port>
			</input>
			<output>
				<port id="1" precision="FP32">
					<dim>64</dim>
					<dim>64</dim>
					<dim>1</dim>
					<dim>1</dim>
				</port>
			</output>
		</layer>
		<layer id="107" name="Multiply_7394" type="Convolution" version="opset1">
			<data strides="1, 1" dilations="1, 1" pads_begin="0, 0" pads_end="0, 0" auto_pad="explicit" />
			<input>
				<port id="0" precision="FP32">
					<dim>1</dim>
					<dim>64</dim>
					<dim>30</dim>
					<dim>40</dim>
				</port>
				<port id="1" precision="FP32">
					<dim>64</dim>
					<dim>64</dim>
					<dim>1</dim>
					<dim>1</dim>
				</port>
			</input>
			<output>
				<port id="2" precision="FP32">
					<dim>1</dim>
					<dim>64</dim>
					<dim>30</dim>
					<dim>40</dim>
				</port>
			</output>
		</layer>
		<layer id="108" name="Constant_7399_compressed" type="Const" version="opset1">
			<data element_type="f16" shape="1, 64, 1, 1" offset="41356" size="128" />
			<output>
				<port id="0" precision="FP16">
					<dim>1</dim>
					<dim>64</dim>
					<dim>1</dim>
					<dim>1</dim>
				</port>
			</output>
		</layer>
		<layer id="109" name="Constant_7399" type="Convert" version="opset1">
			<data destination_type="f32" />
			<rt_info>
				<attribute name="decompression" version="0" />
			</rt_info>
			<input>
				<port id="0" precision="FP16">
					<dim>1</dim>
					<dim>64</dim>
					<dim>1</dim>
					<dim>1</dim>
				</port>
			</input>
			<output>
				<port id="1" precision="FP32">
					<dim>1</dim>
					<dim>64</dim>
					<dim>1</dim>
					<dim>1</dim>
				</port>
			</output>
		</layer>
		<layer id="110" name="228" type="Add" version="opset1">
			<data auto_broadcast="numpy" />
			<input>
				<port id="0" precision="FP32">
					<dim>1</dim>
					<dim>64</dim>
					<dim>30</dim>
					<dim>40</dim>
				</port>
				<port id="1" precision="FP32">
					<dim>1</dim>
					<dim>64</dim>
					<dim>1</dim>
					<dim>1</dim>
				</port>
			</input>
			<output>
				<port id="2" precision="FP32" names="228">
					<dim>1</dim>
					<dim>64</dim>
					<dim>30</dim>
					<dim>40</dim>
				</port>
			</output>
		</layer>
		<layer id="111" name="229" type="ReLU" version="opset1">
			<input>
				<port id="0" precision="FP32">
					<dim>1</dim>
					<dim>64</dim>
					<dim>30</dim>
					<dim>40</dim>
				</port>
			</input>
			<output>
				<port id="1" precision="FP32" names="229">
					<dim>1</dim>
					<dim>64</dim>
					<dim>30</dim>
					<dim>40</dim>
				</port>
			</output>
		</layer>
		<layer id="112" name="Reshape_664_compressed" type="Const" version="opset1">
			<data element_type="f16" shape="64, 1, 1, 3, 3" offset="41484" size="1152" />
			<output>
				<port id="0" precision="FP16">
					<dim>64</dim>
					<dim>1</dim>
					<dim>1</dim>
					<dim>3</dim>
					<dim>3</dim>
				</port>
			</output>
		</layer>
		<layer id="113" name="Reshape_664" type="Convert" version="opset1">
			<data destination_type="f32" />
			<rt_info>
				<attribute name="decompression" version="0" />
			</rt_info>
			<input>
				<port id="0" precision="FP16">
					<dim>64</dim>
					<dim>1</dim>
					<dim>1</dim>
					<dim>3</dim>
					<dim>3</dim>
				</port>
			</input>
			<output>
				<port id="1" precision="FP32">
					<dim>64</dim>
					<dim>1</dim>
					<dim>1</dim>
					<dim>3</dim>
					<dim>3</dim>
				</port>
			</output>
		</layer>
		<layer id="114" name="244/WithoutBiases" type="GroupConvolution" version="opset1">
			<data strides="1, 1" pads_begin="1, 1" pads_end="1, 1" dilations="1, 1" auto_pad="explicit" />
			<input>
				<port id="0" precision="FP32">
					<dim>1</dim>
					<dim>64</dim>
					<dim>30</dim>
					<dim>40</dim>
				</port>
				<port id="1" precision="FP32">
					<dim>64</dim>
					<dim>1</dim>
					<dim>1</dim>
					<dim>3</dim>
					<dim>3</dim>
				</port>
			</input>
			<output>
				<port id="2" precision="FP32">
					<dim>1</dim>
					<dim>64</dim>
					<dim>30</dim>
					<dim>40</dim>
				</port>
			</output>
		</layer>
		<layer id="115" name="Reshape_714_compressed" type="Const" version="opset1">
			<data element_type="f16" shape="1, 64, 1, 1" offset="42636" size="128" />
			<output>
				<port id="0" precision="FP16">
					<dim>1</dim>
					<dim>64</dim>
					<dim>1</dim>
					<dim>1</dim>
				</port>
			</output>
		</layer>
		<layer id="116" name="Reshape_714" type="Convert" version="opset1">
			<data destination_type="f32" />
			<rt_info>
				<attribute name="decompression" version="0" />
			</rt_info>
			<input>
				<port id="0" precision="FP16">
					<dim>1</dim>
					<dim>64</dim>
					<dim>1</dim>
					<dim>1</dim>
				</port>
			</input>
			<output>
				<port id="1" precision="FP32">
					<dim>1</dim>
					<dim>64</dim>
					<dim>1</dim>
					<dim>1</dim>
				</port>
			</output>
		</layer>
		<layer id="117" name="244" type="Add" version="opset1">
			<data auto_broadcast="numpy" />
			<input>
				<port id="0" precision="FP32">
					<dim>1</dim>
					<dim>64</dim>
					<dim>30</dim>
					<dim>40</dim>
				</port>
				<port id="1" precision="FP32">
					<dim>1</dim>
					<dim>64</dim>
					<dim>1</dim>
					<dim>1</dim>
				</port>
			</input>
			<output>
				<port id="2" precision="FP32" names="244">
					<dim>1</dim>
					<dim>64</dim>
					<dim>30</dim>
					<dim>40</dim>
				</port>
			</output>
		</layer>
		<layer id="118" name="245" type="ReLU" version="opset1">
			<input>
				<port id="0" precision="FP32">
					<dim>1</dim>
					<dim>64</dim>
					<dim>30</dim>
					<dim>40</dim>
				</port>
			</input>
			<output>
				<port id="1" precision="FP32" names="245">
					<dim>1</dim>
					<dim>64</dim>
					<dim>30</dim>
					<dim>40</dim>
				</port>
			</output>
		</layer>
		<layer id="119" name="regression_headers.0.2.weight_compressed" type="Const" version="opset1">
			<data element_type="f16" shape="12, 64, 1, 1" offset="42764" size="1536" />
			<output>
				<port id="0" precision="FP16">
					<dim>12</dim>
					<dim>64</dim>
					<dim>1</dim>
					<dim>1</dim>
				</port>
			</output>
		</layer>
		<layer id="120" name="regression_headers.0.2.weight" type="Convert" version="opset1">
			<data destination_type="f32" />
			<rt_info>
				<attribute name="decompression" version="0" />
			</rt_info>
			<input>
				<port id="0" precision="FP16">
					<dim>12</dim>
					<dim>64</dim>
					<dim>1</dim>
					<dim>1</dim>
				</port>
			</input>
			<output>
				<port id="1" precision="FP32" names="regression_headers.0.2.weight">
					<dim>12</dim>
					<dim>64</dim>
					<dim>1</dim>
					<dim>1</dim>
				</port>
			</output>
		</layer>
		<layer id="121" name="246/WithoutBiases" type="Convolution" version="opset1">
			<data strides="1, 1" dilations="1, 1" pads_begin="0, 0" pads_end="0, 0" auto_pad="explicit" />
			<input>
				<port id="0" precision="FP32">
					<dim>1</dim>
					<dim>64</dim>
					<dim>30</dim>
					<dim>40</dim>
				</port>
				<port id="1" precision="FP32">
					<dim>12</dim>
					<dim>64</dim>
					<dim>1</dim>
					<dim>1</dim>
				</port>
			</input>
			<output>
				<port id="2" precision="FP32">
					<dim>1</dim>
					<dim>12</dim>
					<dim>30</dim>
					<dim>40</dim>
				</port>
			</output>
		</layer>
		<layer id="122" name="Reshape_728_compressed" type="Const" version="opset1">
			<data element_type="f16" shape="1, 12, 1, 1" offset="44300" size="24" />
			<output>
				<port id="0" precision="FP16">
					<dim>1</dim>
					<dim>12</dim>
					<dim>1</dim>
					<dim>1</dim>
				</port>
			</output>
		</layer>
		<layer id="123" name="Reshape_728" type="Convert" version="opset1">
			<data destination_type="f32" />
			<rt_info>
				<attribute name="decompression" version="0" />
			</rt_info>
			<input>
				<port id="0" precision="FP16">
					<dim>1</dim>
					<dim>12</dim>
					<dim>1</dim>
					<dim>1</dim>
				</port>
			</input>
			<output>
				<port id="1" precision="FP32">
					<dim>1</dim>
					<dim>12</dim>
					<dim>1</dim>
					<dim>1</dim>
				</port>
			</output>
		</layer>
		<layer id="124" name="246" type="Add" version="opset1">
			<data auto_broadcast="numpy" />
			<input>
				<port id="0" precision="FP32">
					<dim>1</dim>
					<dim>12</dim>
					<dim>30</dim>
					<dim>40</dim>
				</port>
				<port id="1" precision="FP32">
					<dim>1</dim>
					<dim>12</dim>
					<dim>1</dim>
					<dim>1</dim>
				</port>
			</input>
			<output>
				<port id="2" precision="FP32" names="246">
					<dim>1</dim>
					<dim>12</dim>
					<dim>30</dim>
					<dim>40</dim>
				</port>
			</output>
		</layer>
		<layer id="125" name="Constant_730" type="Const" version="opset1">
			<data element_type="i64" shape="4" offset="44324" size="32" />
			<output>
				<port id="0" precision="I64">
					<dim>4</dim>
				</port>
			</output>
		</layer>
		<layer id="126" name="247" type="Transpose" version="opset1">
			<input>
				<port id="0" precision="FP32">
					<dim>1</dim>
					<dim>12</dim>
					<dim>30</dim>
					<dim>40</dim>
				</port>
				<port id="1" precision="I64">
					<dim>4</dim>
				</port>
			</input>
			<output>
				<port id="2" precision="FP32" names="247">
					<dim>1</dim>
					<dim>30</dim>
					<dim>40</dim>
					<dim>12</dim>
				</port>
			</output>
		</layer>
		<layer id="127" name="256" type="Const" version="opset1">
			<data element_type="i64" shape="3" offset="44356" size="24" />
			<rt_info>
				<attribute name="precise" version="0" />
			</rt_info>
			<output>
				<port id="0" precision="I64">
					<dim>3</dim>
				</port>
			</output>
		</layer>
		<layer id="128" name="257" type="Reshape" version="opset1">
			<data special_zero="true" />
			<input>
				<port id="0" precision="FP32">
					<dim>1</dim>
					<dim>30</dim>
					<dim>40</dim>
					<dim>12</dim>
				</port>
				<port id="1" precision="I64">
					<dim>3</dim>
				</port>
			</input>
			<output>
				<port id="2" precision="FP32" names="257">
					<dim>1</dim>
					<dim>3600</dim>
					<dim>4</dim>
				</port>
			</output>
		</layer>
		<layer id="129" name="Multiply_7529_compressed" type="Const" version="opset1">
			<data element_type="f16" shape="64, 1, 1, 3, 3" offset="44380" size="1152" />
			<output>
				<port id="0" precision="FP16">
					<dim>64</dim>
					<dim>1</dim>
					<dim>1</dim>
					<dim>3</dim>
					<dim>3</dim>
				</port>
			</output>
		</layer>
		<layer id="130" name="Multiply_7529" type="Convert" version="opset1">
			<data destination_type="f32" />
			<rt_info>
				<attribute name="decompression" version="0" />
			</rt_info>
			<input>
				<port id="0" precision="FP16">
					<dim>64</dim>
					<dim>1</dim>
					<dim>1</dim>
					<dim>3</dim>
					<dim>3</dim>
				</port>
			</input>
			<output>
				<port id="1" precision="FP32">
					<dim>64</dim>
					<dim>1</dim>
					<dim>1</dim>
					<dim>3</dim>
					<dim>3</dim>
				</port>
			</output>
		</layer>
		<layer id="131" name="Multiply_7401" type="GroupConvolution" version="opset1">
			<data strides="2, 2" pads_begin="1, 1" pads_end="1, 1" dilations="1, 1" auto_pad="explicit" />
			<input>
				<port id="0" precision="FP32">
					<dim>1</dim>
					<dim>64</dim>
					<dim>30</dim>
					<dim>40</dim>
				</port>
				<port id="1" precision="FP32">
					<dim>64</dim>
					<dim>1</dim>
					<dim>1</dim>
					<dim>3</dim>
					<dim>3</dim>
				</port>
			</input>
			<output>
				<port id="2" precision="FP32" names="258">
					<dim>1</dim>
					<dim>64</dim>
					<dim>15</dim>
					<dim>20</dim>
				</port>
			</output>
		</layer>
		<layer id="132" name="Constant_7406_compressed" type="Const" version="opset1">
			<data element_type="f16" shape="1, 64, 1, 1" offset="45532" size="128" />
			<output>
				<port id="0" precision="FP16">
					<dim>1</dim>
					<dim>64</dim>
					<dim>1</dim>
					<dim>1</dim>
				</port>
			</output>
		</layer>
		<layer id="133" name="Constant_7406" type="Convert" version="opset1">
			<data destination_type="f32" />
			<rt_info>
				<attribute name="decompression" version="0" />
			</rt_info>
			<input>
				<port id="0" precision="FP16">
					<dim>1</dim>
					<dim>64</dim>
					<dim>1</dim>
					<dim>1</dim>
				</port>
			</input>
			<output>
				<port id="1" precision="FP32">
					<dim>1</dim>
					<dim>64</dim>
					<dim>1</dim>
					<dim>1</dim>
				</port>
			</output>
		</layer>
		<layer id="134" name="259" type="Add" version="opset1">
			<data auto_broadcast="numpy" />
			<input>
				<port id="0" precision="FP32">
					<dim>1</dim>
					<dim>64</dim>
					<dim>15</dim>
					<dim>20</dim>
				</port>
				<port id="1" precision="FP32">
					<dim>1</dim>
					<dim>64</dim>
					<dim>1</dim>
					<dim>1</dim>
				</port>
			</input>
			<output>
				<port id="2" precision="FP32" names="259">
					<dim>1</dim>
					<dim>64</dim>
					<dim>15</dim>
					<dim>20</dim>
				</port>
			</output>
		</layer>
		<layer id="135" name="260" type="ReLU" version="opset1">
			<input>
				<port id="0" precision="FP32">
					<dim>1</dim>
					<dim>64</dim>
					<dim>15</dim>
					<dim>20</dim>
				</port>
			</input>
			<output>
				<port id="1" precision="FP32" names="260">
					<dim>1</dim>
					<dim>64</dim>
					<dim>15</dim>
					<dim>20</dim>
				</port>
			</output>
		</layer>
		<layer id="136" name="Multiply_7532_compressed" type="Const" version="opset1">
			<data element_type="f16" shape="128, 64, 1, 1" offset="45660" size="16384" />
			<output>
				<port id="0" precision="FP16">
					<dim>128</dim>
					<dim>64</dim>
					<dim>1</dim>
					<dim>1</dim>
				</port>
			</output>
		</layer>
		<layer id="137" name="Multiply_7532" type="Convert" version="opset1">
			<data destination_type="f32" />
			<rt_info>
				<attribute name="decompression" version="0" />
			</rt_info>
			<input>
				<port id="0" precision="FP16">
					<dim>128</dim>
					<dim>64</dim>
					<dim>1</dim>
					<dim>1</dim>
				</port>
			</input>
			<output>
				<port id="1" precision="FP32">
					<dim>128</dim>
					<dim>64</dim>
					<dim>1</dim>
					<dim>1</dim>
				</port>
			</output>
		</layer>
		<layer id="138" name="Multiply_7408" type="Convolution" version="opset1">
			<data strides="1, 1" dilations="1, 1" pads_begin="0, 0" pads_end="0, 0" auto_pad="explicit" />
			<input>
				<port id="0" precision="FP32">
					<dim>1</dim>
					<dim>64</dim>
					<dim>15</dim>
					<dim>20</dim>
				</port>
				<port id="1" precision="FP32">
					<dim>128</dim>
					<dim>64</dim>
					<dim>1</dim>
					<dim>1</dim>
				</port>
			</input>
			<output>
				<port id="2" precision="FP32">
					<dim>1</dim>
					<dim>128</dim>
					<dim>15</dim>
					<dim>20</dim>
				</port>
			</output>
		</layer>
		<layer id="139" name="Constant_7413_compressed" type="Const" version="opset1">
			<data element_type="f16" shape="1, 128, 1, 1" offset="62044" size="256" />
			<output>
				<port id="0" precision="FP16">
					<dim>1</dim>
					<dim>128</dim>
					<dim>1</dim>
					<dim>1</dim>
				</port>
			</output>
		</layer>
		<layer id="140" name="Constant_7413" type="Convert" version="opset1">
			<data destination_type="f32" />
			<rt_info>
				<attribute name="decompression" version="0" />
			</rt_info>
			<input>
				<port id="0" precision="FP16">
					<dim>1</dim>
					<dim>128</dim>
					<dim>1</dim>
					<dim>1</dim>
				</port>
			</input>
			<output>
				<port id="1" precision="FP32">
					<dim>1</dim>
					<dim>128</dim>
					<dim>1</dim>
					<dim>1</dim>
				</port>
			</output>
		</layer>
		<layer id="141" name="262" type="Add" version="opset1">
			<data auto_broadcast="numpy" />
			<input>
				<port id="0" precision="FP32">
					<dim>1</dim>
					<dim>128</dim>
					<dim>15</dim>
					<dim>20</dim>
				</port>
				<port id="1" precision="FP32">
					<dim>1</dim>
					<dim>128</dim>
					<dim>1</dim>
					<dim>1</dim>
				</port>
			</input>
			<output>
				<port id="2" precision="FP32" names="262">
					<dim>1</dim>
					<dim>128</dim>
					<dim>15</dim>
					<dim>20</dim>
				</port>
			</output>
		</layer>
		<layer id="142" name="263" type="ReLU" version="opset1">
			<input>
				<port id="0" precision="FP32">
					<dim>1</dim>
					<dim>128</dim>
					<dim>15</dim>
					<dim>20</dim>
				</port>
			</input>
			<output>
				<port id="1" precision="FP32" names="263">
					<dim>1</dim>
					<dim>128</dim>
					<dim>15</dim>
					<dim>20</dim>
				</port>
			</output>
		</layer>
		<layer id="143" name="Multiply_7536_compressed" type="Const" version="opset1">
			<data element_type="f16" shape="128, 1, 1, 3, 3" offset="62300" size="2304" />
			<output>
				<port id="0" precision="FP16">
					<dim>128</dim>
					<dim>1</dim>
					<dim>1</dim>
					<dim>3</dim>
					<dim>3</dim>
				</port>
			</output>
		</layer>
		<layer id="144" name="Multiply_7536" type="Convert" version="opset1">
			<data destination_type="f32" />
			<rt_info>
				<attribute name="decompression" version="0" />
			</rt_info>
			<input>
				<port id="0" precision="FP16">
					<dim>128</dim>
					<dim>1</dim>
					<dim>1</dim>
					<dim>3</dim>
					<dim>3</dim>
				</port>
			</input>
			<output>
				<port id="1" precision="FP32">
					<dim>128</dim>
					<dim>1</dim>
					<dim>1</dim>
					<dim>3</dim>
					<dim>3</dim>
				</port>
			</output>
		</layer>
		<layer id="145" name="Multiply_7415" type="GroupConvolution" version="opset1">
			<data strides="1, 1" pads_begin="1, 1" pads_end="1, 1" dilations="1, 1" auto_pad="explicit" />
			<input>
				<port id="0" precision="FP32">
					<dim>1</dim>
					<dim>128</dim>
					<dim>15</dim>
					<dim>20</dim>
				</port>
				<port id="1" precision="FP32">
					<dim>128</dim>
					<dim>1</dim>
					<dim>1</dim>
					<dim>3</dim>
					<dim>3</dim>
				</port>
			</input>
			<output>
				<port id="2" precision="FP32" names="264">
					<dim>1</dim>
					<dim>128</dim>
					<dim>15</dim>
					<dim>20</dim>
				</port>
			</output>
		</layer>
		<layer id="146" name="Constant_7420_compressed" type="Const" version="opset1">
			<data element_type="f16" shape="1, 128, 1, 1" offset="64604" size="256" />
			<output>
				<port id="0" precision="FP16">
					<dim>1</dim>
					<dim>128</dim>
					<dim>1</dim>
					<dim>1</dim>
				</port>
			</output>
		</layer>
		<layer id="147" name="Constant_7420" type="Convert" version="opset1">
			<data destination_type="f32" />
			<rt_info>
				<attribute name="decompression" version="0" />
			</rt_info>
			<input>
				<port id="0" precision="FP16">
					<dim>1</dim>
					<dim>128</dim>
					<dim>1</dim>
					<dim>1</dim>
				</port>
			</input>
			<output>
				<port id="1" precision="FP32">
					<dim>1</dim>
					<dim>128</dim>
					<dim>1</dim>
					<dim>1</dim>
				</port>
			</output>
		</layer>
		<layer id="148" name="265" type="Add" version="opset1">
			<data auto_broadcast="numpy" />
			<input>
				<port id="0" precision="FP32">
					<dim>1</dim>
					<dim>128</dim>
					<dim>15</dim>
					<dim>20</dim>
				</port>
				<port id="1" precision="FP32">
					<dim>1</dim>
					<dim>128</dim>
					<dim>1</dim>
					<dim>1</dim>
				</port>
			</input>
			<output>
				<port id="2" precision="FP32" names="265">
					<dim>1</dim>
					<dim>128</dim>
					<dim>15</dim>
					<dim>20</dim>
				</port>
			</output>
		</layer>
		<layer id="149" name="266" type="ReLU" version="opset1">
			<input>
				<port id="0" precision="FP32">
					<dim>1</dim>
					<dim>128</dim>
					<dim>15</dim>
					<dim>20</dim>
				</port>
			</input>
			<output>
				<port id="1" precision="FP32" names="266">
					<dim>1</dim>
					<dim>128</dim>
					<dim>15</dim>
					<dim>20</dim>
				</port>
			</output>
		</layer>
		<layer id="150" name="Multiply_7539_compressed" type="Const" version="opset1">
			<data element_type="f16" shape="128, 128, 1, 1" offset="64860" size="32768" />
			<output>
				<port id="0" precision="FP16">
					<dim>128</dim>
					<dim>128</dim>
					<dim>1</dim>
					<dim>1</dim>
				</port>
			</output>
		</layer>
		<layer id="151" name="Multiply_7539" type="Convert" version="opset1">
			<data destination_type="f32" />
			<rt_info>
				<attribute name="decompression" version="0" />
			</rt_info>
			<input>
				<port id="0" precision="FP16">
					<dim>128</dim>
					<dim>128</dim>
					<dim>1</dim>
					<dim>1</dim>
				</port>
			</input>
			<output>
				<port id="1" precision="FP32">
					<dim>128</dim>
					<dim>128</dim>
					<dim>1</dim>
					<dim>1</dim>
				</port>
			</output>
		</layer>
		<layer id="152" name="Multiply_7422" type="Convolution" version="opset1">
			<data strides="1, 1" dilations="1, 1" pads_begin="0, 0" pads_end="0, 0" auto_pad="explicit" />
			<input>
				<port id="0" precision="FP32">
					<dim>1</dim>
					<dim>128</dim>
					<dim>15</dim>
					<dim>20</dim>
				</port>
				<port id="1" precision="FP32">
					<dim>128</dim>
					<dim>128</dim>
					<dim>1</dim>
					<dim>1</dim>
				</port>
			</input>
			<output>
				<port id="2" precision="FP32">
					<dim>1</dim>
					<dim>128</dim>
					<dim>15</dim>
					<dim>20</dim>
				</port>
			</output>
		</layer>
		<layer id="153" name="Constant_7427_compressed" type="Const" version="opset1">
			<data element_type="f16" shape="1, 128, 1, 1" offset="97628" size="256" />
			<output>
				<port id="0" precision="FP16">
					<dim>1</dim>
					<dim>128</dim>
					<dim>1</dim>
					<dim>1</dim>
				</port>
			</output>
		</layer>
		<layer id="154" name="Constant_7427" type="Convert" version="opset1">
			<data destination_type="f32" />
			<rt_info>
				<attribute name="decompression" version="0" />
			</rt_info>
			<input>
				<port id="0" precision="FP16">
					<dim>1</dim>
					<dim>128</dim>
					<dim>1</dim>
					<dim>1</dim>
				</port>
			</input>
			<output>
				<port id="1" precision="FP32">
					<dim>1</dim>
					<dim>128</dim>
					<dim>1</dim>
					<dim>1</dim>
				</port>
			</output>
		</layer>
		<layer id="155" name="268" type="Add" version="opset1">
			<data auto_broadcast="numpy" />
			<input>
				<port id="0" precision="FP32">
					<dim>1</dim>
					<dim>128</dim>
					<dim>15</dim>
					<dim>20</dim>
				</port>
				<port id="1" precision="FP32">
					<dim>1</dim>
					<dim>128</dim>
					<dim>1</dim>
					<dim>1</dim>
				</port>
			</input>
			<output>
				<port id="2" precision="FP32" names="268">
					<dim>1</dim>
					<dim>128</dim>
					<dim>15</dim>
					<dim>20</dim>
				</port>
			</output>
		</layer>
		<layer id="156" name="269" type="ReLU" version="opset1">
			<input>
				<port id="0" precision="FP32">
					<dim>1</dim>
					<dim>128</dim>
					<dim>15</dim>
					<dim>20</dim>
				</port>
			</input>
			<output>
				<port id="1" precision="FP32" names="269">
					<dim>1</dim>
					<dim>128</dim>
					<dim>15</dim>
					<dim>20</dim>
				</port>
			</output>
		</layer>
		<layer id="157" name="Multiply_7543_compressed" type="Const" version="opset1">
			<data element_type="f16" shape="128, 1, 1, 3, 3" offset="97884" size="2304" />
			<output>
				<port id="0" precision="FP16">
					<dim>128</dim>
					<dim>1</dim>
					<dim>1</dim>
					<dim>3</dim>
					<dim>3</dim>
				</port>
			</output>
		</layer>
		<layer id="158" name="Multiply_7543" type="Convert" version="opset1">
			<data destination_type="f32" />
			<rt_info>
				<attribute name="decompression" version="0" />
			</rt_info>
			<input>
				<port id="0" precision="FP16">
					<dim>128</dim>
					<dim>1</dim>
					<dim>1</dim>
					<dim>3</dim>
					<dim>3</dim>
				</port>
			</input>
			<output>
				<port id="1" precision="FP32">
					<dim>128</dim>
					<dim>1</dim>
					<dim>1</dim>
					<dim>3</dim>
					<dim>3</dim>
				</port>
			</output>
		</layer>
		<layer id="159" name="Multiply_7429" type="GroupConvolution" version="opset1">
			<data strides="1, 1" pads_begin="1, 1" pads_end="1, 1" dilations="1, 1" auto_pad="explicit" />
			<input>
				<port id="0" precision="FP32">
					<dim>1</dim>
					<dim>128</dim>
					<dim>15</dim>
					<dim>20</dim>
				</port>
				<port id="1" precision="FP32">
					<dim>128</dim>
					<dim>1</dim>
					<dim>1</dim>
					<dim>3</dim>
					<dim>3</dim>
				</port>
			</input>
			<output>
				<port id="2" precision="FP32" names="270">
					<dim>1</dim>
					<dim>128</dim>
					<dim>15</dim>
					<dim>20</dim>
				</port>
			</output>
		</layer>
		<layer id="160" name="Constant_7434_compressed" type="Const" version="opset1">
			<data element_type="f16" shape="1, 128, 1, 1" offset="100188" size="256" />
			<output>
				<port id="0" precision="FP16">
					<dim>1</dim>
					<dim>128</dim>
					<dim>1</dim>
					<dim>1</dim>
				</port>
			</output>
		</layer>
		<layer id="161" name="Constant_7434" type="Convert" version="opset1">
			<data destination_type="f32" />
			<rt_info>
				<attribute name="decompression" version="0" />
			</rt_info>
			<input>
				<port id="0" precision="FP16">
					<dim>1</dim>
					<dim>128</dim>
					<dim>1</dim>
					<dim>1</dim>
				</port>
			</input>
			<output>
				<port id="1" precision="FP32">
					<dim>1</dim>
					<dim>128</dim>
					<dim>1</dim>
					<dim>1</dim>
				</port>
			</output>
		</layer>
		<layer id="162" name="271" type="Add" version="opset1">
			<data auto_broadcast="numpy" />
			<input>
				<port id="0" precision="FP32">
					<dim>1</dim>
					<dim>128</dim>
					<dim>15</dim>
					<dim>20</dim>
				</port>
				<port id="1" precision="FP32">
					<dim>1</dim>
					<dim>128</dim>
					<dim>1</dim>
					<dim>1</dim>
				</port>
			</input>
			<output>
				<port id="2" precision="FP32" names="271">
					<dim>1</dim>
					<dim>128</dim>
					<dim>15</dim>
					<dim>20</dim>
				</port>
			</output>
		</layer>
		<layer id="163" name="272" type="ReLU" version="opset1">
			<input>
				<port id="0" precision="FP32">
					<dim>1</dim>
					<dim>128</dim>
					<dim>15</dim>
					<dim>20</dim>
				</port>
			</input>
			<output>
				<port id="1" precision="FP32" names="272">
					<dim>1</dim>
					<dim>128</dim>
					<dim>15</dim>
					<dim>20</dim>
				</port>
			</output>
		</layer>
		<layer id="164" name="Multiply_7546_compressed" type="Const" version="opset1">
			<data element_type="f16" shape="128, 128, 1, 1" offset="100444" size="32768" />
			<output>
				<port id="0" precision="FP16">
					<dim>128</dim>
					<dim>128</dim>
					<dim>1</dim>
					<dim>1</dim>
				</port>
			</output>
		</layer>
		<layer id="165" name="Multiply_7546" type="Convert" version="opset1">
			<data destination_type="f32" />
			<rt_info>
				<attribute name="decompression" version="0" />
			</rt_info>
			<input>
				<port id="0" precision="FP16">
					<dim>128</dim>
					<dim>128</dim>
					<dim>1</dim>
					<dim>1</dim>
				</port>
			</input>
			<output>
				<port id="1" precision="FP32">
					<dim>128</dim>
					<dim>128</dim>
					<dim>1</dim>
					<dim>1</dim>
				</port>
			</output>
		</layer>
		<layer id="166" name="Multiply_7436" type="Convolution" version="opset1">
			<data strides="1, 1" dilations="1, 1" pads_begin="0, 0" pads_end="0, 0" auto_pad="explicit" />
			<input>
				<port id="0" precision="FP32">
					<dim>1</dim>
					<dim>128</dim>
					<dim>15</dim>
					<dim>20</dim>
				</port>
				<port id="1" precision="FP32">
					<dim>128</dim>
					<dim>128</dim>
					<dim>1</dim>
					<dim>1</dim>
				</port>
			</input>
			<output>
				<port id="2" precision="FP32">
					<dim>1</dim>
					<dim>128</dim>
					<dim>15</dim>
					<dim>20</dim>
				</port>
			</output>
		</layer>
		<layer id="167" name="Constant_7441_compressed" type="Const" version="opset1">
			<data element_type="f16" shape="1, 128, 1, 1" offset="133212" size="256" />
			<output>
				<port id="0" precision="FP16">
					<dim>1</dim>
					<dim>128</dim>
					<dim>1</dim>
					<dim>1</dim>
				</port>
			</output>
		</layer>
		<layer id="168" name="Constant_7441" type="Convert" version="opset1">
			<data destination_type="f32" />
			<rt_info>
				<attribute name="decompression" version="0" />
			</rt_info>
			<input>
				<port id="0" precision="FP16">
					<dim>1</dim>
					<dim>128</dim>
					<dim>1</dim>
					<dim>1</dim>
				</port>
			</input>
			<output>
				<port id="1" precision="FP32">
					<dim>1</dim>
					<dim>128</dim>
					<dim>1</dim>
					<dim>1</dim>
				</port>
			</output>
		</layer>
		<layer id="169" name="274" type="Add" version="opset1">
			<data auto_broadcast="numpy" />
			<input>
				<port id="0" precision="FP32">
					<dim>1</dim>
					<dim>128</dim>
					<dim>15</dim>
					<dim>20</dim>
				</port>
				<port id="1" precision="FP32">
					<dim>1</dim>
					<dim>128</dim>
					<dim>1</dim>
					<dim>1</dim>
				</port>
			</input>
			<output>
				<port id="2" precision="FP32" names="274">
					<dim>1</dim>
					<dim>128</dim>
					<dim>15</dim>
					<dim>20</dim>
				</port>
			</output>
		</layer>
		<layer id="170" name="275" type="ReLU" version="opset1">
			<input>
				<port id="0" precision="FP32">
					<dim>1</dim>
					<dim>128</dim>
					<dim>15</dim>
					<dim>20</dim>
				</port>
			</input>
			<output>
				<port id="1" precision="FP32" names="275">
					<dim>1</dim>
					<dim>128</dim>
					<dim>15</dim>
					<dim>20</dim>
				</port>
			</output>
		</layer>
		<layer id="171" name="Reshape_1004_compressed" type="Const" version="opset1">
			<data element_type="f16" shape="128, 1, 1, 3, 3" offset="133468" size="2304" />
			<output>
				<port id="0" precision="FP16">
					<dim>128</dim>
					<dim>1</dim>
					<dim>1</dim>
					<dim>3</dim>
					<dim>3</dim>
				</port>
			</output>
		</layer>
		<layer id="172" name="Reshape_1004" type="Convert" version="opset1">
			<data destination_type="f32" />
			<rt_info>
				<attribute name="decompression" version="0" />
			</rt_info>
			<input>
				<port id="0" precision="FP16">
					<dim>128</dim>
					<dim>1</dim>
					<dim>1</dim>
					<dim>3</dim>
					<dim>3</dim>
				</port>
			</input>
			<output>
				<port id="1" precision="FP32">
					<dim>128</dim>
					<dim>1</dim>
					<dim>1</dim>
					<dim>3</dim>
					<dim>3</dim>
				</port>
			</output>
		</layer>
		<layer id="173" name="290/WithoutBiases" type="GroupConvolution" version="opset1">
			<data strides="1, 1" pads_begin="1, 1" pads_end="1, 1" dilations="1, 1" auto_pad="explicit" />
			<input>
				<port id="0" precision="FP32">
					<dim>1</dim>
					<dim>128</dim>
					<dim>15</dim>
					<dim>20</dim>
				</port>
				<port id="1" precision="FP32">
					<dim>128</dim>
					<dim>1</dim>
					<dim>1</dim>
					<dim>3</dim>
					<dim>3</dim>
				</port>
			</input>
			<output>
				<port id="2" precision="FP32">
					<dim>1</dim>
					<dim>128</dim>
					<dim>15</dim>
					<dim>20</dim>
				</port>
			</output>
		</layer>
		<layer id="174" name="Reshape_1054_compressed" type="Const" version="opset1">
			<data element_type="f16" shape="1, 128, 1, 1" offset="135772" size="256" />
			<output>
				<port id="0" precision="FP16">
					<dim>1</dim>
					<dim>128</dim>
					<dim>1</dim>
					<dim>1</dim>
				</port>
			</output>
		</layer>
		<layer id="175" name="Reshape_1054" type="Convert" version="opset1">
			<data destination_type="f32" />
			<rt_info>
				<attribute name="decompression" version="0" />
			</rt_info>
			<input>
				<port id="0" precision="FP16">
					<dim>1</dim>
					<dim>128</dim>
					<dim>1</dim>
					<dim>1</dim>
				</port>
			</input>
			<output>
				<port id="1" precision="FP32">
					<dim>1</dim>
					<dim>128</dim>
					<dim>1</dim>
					<dim>1</dim>
				</port>
			</output>
		</layer>
		<layer id="176" name="290" type="Add" version="opset1">
			<data auto_broadcast="numpy" />
			<input>
				<port id="0" precision="FP32">
					<dim>1</dim>
					<dim>128</dim>
					<dim>15</dim>
					<dim>20</dim>
				</port>
				<port id="1" precision="FP32">
					<dim>1</dim>
					<dim>128</dim>
					<dim>1</dim>
					<dim>1</dim>
				</port>
			</input>
			<output>
				<port id="2" precision="FP32" names="290">
					<dim>1</dim>
					<dim>128</dim>
					<dim>15</dim>
					<dim>20</dim>
				</port>
			</output>
		</layer>
		<layer id="177" name="291" type="ReLU" version="opset1">
			<input>
				<port id="0" precision="FP32">
					<dim>1</dim>
					<dim>128</dim>
					<dim>15</dim>
					<dim>20</dim>
				</port>
			</input>
			<output>
				<port id="1" precision="FP32" names="291">
					<dim>1</dim>
					<dim>128</dim>
					<dim>15</dim>
					<dim>20</dim>
				</port>
			</output>
		</layer>
		<layer id="178" name="regression_headers.1.2.weight_compressed" type="Const" version="opset1">
			<data element_type="f16" shape="8, 128, 1, 1" offset="136028" size="2048" />
			<output>
				<port id="0" precision="FP16">
					<dim>8</dim>
					<dim>128</dim>
					<dim>1</dim>
					<dim>1</dim>
				</port>
			</output>
		</layer>
		<layer id="179" name="regression_headers.1.2.weight" type="Convert" version="opset1">
			<data destination_type="f32" />
			<rt_info>
				<attribute name="decompression" version="0" />
			</rt_info>
			<input>
				<port id="0" precision="FP16">
					<dim>8</dim>
					<dim>128</dim>
					<dim>1</dim>
					<dim>1</dim>
				</port>
			</input>
			<output>
				<port id="1" precision="FP32" names="regression_headers.1.2.weight">
					<dim>8</dim>
					<dim>128</dim>
					<dim>1</dim>
					<dim>1</dim>
				</port>
			</output>
		</layer>
		<layer id="180" name="292/WithoutBiases" type="Convolution" version="opset1">
			<data strides="1, 1" dilations="1, 1" pads_begin="0, 0" pads_end="0, 0" auto_pad="explicit" />
			<input>
				<port id="0" precision="FP32">
					<dim>1</dim>
					<dim>128</dim>
					<dim>15</dim>
					<dim>20</dim>
				</port>
				<port id="1" precision="FP32">
					<dim>8</dim>
					<dim>128</dim>
					<dim>1</dim>
					<dim>1</dim>
				</port>
			</input>
			<output>
				<port id="2" precision="FP32">
					<dim>1</dim>
					<dim>8</dim>
					<dim>15</dim>
					<dim>20</dim>
				</port>
			</output>
		</layer>
		<layer id="181" name="Reshape_1068_compressed" type="Const" version="opset1">
			<data element_type="f16" shape="1, 8, 1, 1" offset="138076" size="16" />
			<output>
				<port id="0" precision="FP16">
					<dim>1</dim>
					<dim>8</dim>
					<dim>1</dim>
					<dim>1</dim>
				</port>
			</output>
		</layer>
		<layer id="182" name="Reshape_1068" type="Convert" version="opset1">
			<data destination_type="f32" />
			<rt_info>
				<attribute name="decompression" version="0" />
			</rt_info>
			<input>
				<port id="0" precision="FP16">
					<dim>1</dim>
					<dim>8</dim>
					<dim>1</dim>
					<dim>1</dim>
				</port>
			</input>
			<output>
				<port id="1" precision="FP32">
					<dim>1</dim>
					<dim>8</dim>
					<dim>1</dim>
					<dim>1</dim>
				</port>
			</output>
		</layer>
		<layer id="183" name="292" type="Add" version="opset1">
			<data auto_broadcast="numpy" />
			<input>
				<port id="0" precision="FP32">
					<dim>1</dim>
					<dim>8</dim>
					<dim>15</dim>
					<dim>20</dim>
				</port>
				<port id="1" precision="FP32">
					<dim>1</dim>
					<dim>8</dim>
					<dim>1</dim>
					<dim>1</dim>
				</port>
			</input>
			<output>
				<port id="2" precision="FP32" names="292">
					<dim>1</dim>
					<dim>8</dim>
					<dim>15</dim>
					<dim>20</dim>
				</port>
			</output>
		</layer>
		<layer id="184" name="Constant_1070" type="Const" version="opset1">
			<data element_type="i64" shape="4" offset="44324" size="32" />
			<output>
				<port id="0" precision="I64">
					<dim>4</dim>
				</port>
			</output>
		</layer>
		<layer id="185" name="293" type="Transpose" version="opset1">
			<input>
				<port id="0" precision="FP32">
					<dim>1</dim>
					<dim>8</dim>
					<dim>15</dim>
					<dim>20</dim>
				</port>
				<port id="1" precision="I64">
					<dim>4</dim>
				</port>
			</input>
			<output>
				<port id="2" precision="FP32" names="293">
					<dim>1</dim>
					<dim>15</dim>
					<dim>20</dim>
					<dim>8</dim>
				</port>
			</output>
		</layer>
		<layer id="186" name="302" type="Const" version="opset1">
			<data element_type="i64" shape="3" offset="44356" size="24" />
			<rt_info>
				<attribute name="precise" version="0" />
			</rt_info>
			<output>
				<port id="0" precision="I64">
					<dim>3</dim>
				</port>
			</output>
		</layer>
		<layer id="187" name="303" type="Reshape" version="opset1">
			<data special_zero="true" />
			<input>
				<port id="0" precision="FP32">
					<dim>1</dim>
					<dim>15</dim>
					<dim>20</dim>
					<dim>8</dim>
				</port>
				<port id="1" precision="I64">
					<dim>3</dim>
				</port>
			</input>
			<output>
				<port id="2" precision="FP32" names="303">
					<dim>1</dim>
					<dim>600</dim>
					<dim>4</dim>
				</port>
			</output>
		</layer>
		<layer id="188" name="Multiply_7550_compressed" type="Const" version="opset1">
			<data element_type="f16" shape="128, 1, 1, 3, 3" offset="138092" size="2304" />
			<output>
				<port id="0" precision="FP16">
					<dim>128</dim>
					<dim>1</dim>
					<dim>1</dim>
					<dim>3</dim>
					<dim>3</dim>
				</port>
			</output>
		</layer>
		<layer id="189" name="Multiply_7550" type="Convert" version="opset1">
			<data destination_type="f32" />
			<rt_info>
				<attribute name="decompression" version="0" />
			</rt_info>
			<input>
				<port id="0" precision="FP16">
					<dim>128</dim>
					<dim>1</dim>
					<dim>1</dim>
					<dim>3</dim>
					<dim>3</dim>
				</port>
			</input>
			<output>
				<port id="1" precision="FP32">
					<dim>128</dim>
					<dim>1</dim>
					<dim>1</dim>
					<dim>3</dim>
					<dim>3</dim>
				</port>
			</output>
		</layer>
		<layer id="190" name="Multiply_7443" type="GroupConvolution" version="opset1">
			<data strides="2, 2" pads_begin="1, 1" pads_end="1, 1" dilations="1, 1" auto_pad="explicit" />
			<input>
				<port id="0" precision="FP32">
					<dim>1</dim>
					<dim>128</dim>
					<dim>15</dim>
					<dim>20</dim>
				</port>
				<port id="1" precision="FP32">
					<dim>128</dim>
					<dim>1</dim>
					<dim>1</dim>
					<dim>3</dim>
					<dim>3</dim>
				</port>
			</input>
			<output>
				<port id="2" precision="FP32" names="304">
					<dim>1</dim>
					<dim>128</dim>
					<dim>8</dim>
					<dim>10</dim>
				</port>
			</output>
		</layer>
		<layer id="191" name="Constant_7448_compressed" type="Const" version="opset1">
			<data element_type="f16" shape="1, 128, 1, 1" offset="140396" size="256" />
			<output>
				<port id="0" precision="FP16">
					<dim>1</dim>
					<dim>128</dim>
					<dim>1</dim>
					<dim>1</dim>
				</port>
			</output>
		</layer>
		<layer id="192" name="Constant_7448" type="Convert" version="opset1">
			<data destination_type="f32" />
			<rt_info>
				<attribute name="decompression" version="0" />
			</rt_info>
			<input>
				<port id="0" precision="FP16">
					<dim>1</dim>
					<dim>128</dim>
					<dim>1</dim>
					<dim>1</dim>
				</port>
			</input>
			<output>
				<port id="1" precision="FP32">
					<dim>1</dim>
					<dim>128</dim>
					<dim>1</dim>
					<dim>1</dim>
				</port>
			</output>
		</layer>
		<layer id="193" name="305" type="Add" version="opset1">
			<data auto_broadcast="numpy" />
			<input>
				<port id="0" precision="FP32">
					<dim>1</dim>
					<dim>128</dim>
					<dim>8</dim>
					<dim>10</dim>
				</port>
				<port id="1" precision="FP32">
					<dim>1</dim>
					<dim>128</dim>
					<dim>1</dim>
					<dim>1</dim>
				</port>
			</input>
			<output>
				<port id="2" precision="FP32" names="305">
					<dim>1</dim>
					<dim>128</dim>
					<dim>8</dim>
					<dim>10</dim>
				</port>
			</output>
		</layer>
		<layer id="194" name="306" type="ReLU" version="opset1">
			<input>
				<port id="0" precision="FP32">
					<dim>1</dim>
					<dim>128</dim>
					<dim>8</dim>
					<dim>10</dim>
				</port>
			</input>
			<output>
				<port id="1" precision="FP32" names="306">
					<dim>1</dim>
					<dim>128</dim>
					<dim>8</dim>
					<dim>10</dim>
				</port>
			</output>
		</layer>
		<layer id="195" name="Multiply_7553_compressed" type="Const" version="opset1">
			<data element_type="f16" shape="256, 128, 1, 1" offset="140652" size="65536" />
			<output>
				<port id="0" precision="FP16">
					<dim>256</dim>
					<dim>128</dim>
					<dim>1</dim>
					<dim>1</dim>
				</port>
			</output>
		</layer>
		<layer id="196" name="Multiply_7553" type="Convert" version="opset1">
			<data destination_type="f32" />
			<rt_info>
				<attribute name="decompression" version="0" />
			</rt_info>
			<input>
				<port id="0" precision="FP16">
					<dim>256</dim>
					<dim>128</dim>
					<dim>1</dim>
					<dim>1</dim>
				</port>
			</input>
			<output>
				<port id="1" precision="FP32">
					<dim>256</dim>
					<dim>128</dim>
					<dim>1</dim>
					<dim>1</dim>
				</port>
			</output>
		</layer>
		<layer id="197" name="Multiply_7450" type="Convolution" version="opset1">
			<data strides="1, 1" dilations="1, 1" pads_begin="0, 0" pads_end="0, 0" auto_pad="explicit" />
			<input>
				<port id="0" precision="FP32">
					<dim>1</dim>
					<dim>128</dim>
					<dim>8</dim>
					<dim>10</dim>
				</port>
				<port id="1" precision="FP32">
					<dim>256</dim>
					<dim>128</dim>
					<dim>1</dim>
					<dim>1</dim>
				</port>
			</input>
			<output>
				<port id="2" precision="FP32">
					<dim>1</dim>
					<dim>256</dim>
					<dim>8</dim>
					<dim>10</dim>
				</port>
			</output>
		</layer>
		<layer id="198" name="Constant_7455_compressed" type="Const" version="opset1">
			<data element_type="f16" shape="1, 256, 1, 1" offset="206188" size="512" />
			<output>
				<port id="0" precision="FP16">
					<dim>1</dim>
					<dim>256</dim>
					<dim>1</dim>
					<dim>1</dim>
				</port>
			</output>
		</layer>
		<layer id="199" name="Constant_7455" type="Convert" version="opset1">
			<data destination_type="f32" />
			<rt_info>
				<attribute name="decompression" version="0" />
			</rt_info>
			<input>
				<port id="0" precision="FP16">
					<dim>1</dim>
					<dim>256</dim>
					<dim>1</dim>
					<dim>1</dim>
				</port>
			</input>
			<output>
				<port id="1" precision="FP32">
					<dim>1</dim>
					<dim>256</dim>
					<dim>1</dim>
					<dim>1</dim>
				</port>
			</output>
		</layer>
		<layer id="200" name="308" type="Add" version="opset1">
			<data auto_broadcast="numpy" />
			<input>
				<port id="0" precision="FP32">
					<dim>1</dim>
					<dim>256</dim>
					<dim>8</dim>
					<dim>10</dim>
				</port>
				<port id="1" precision="FP32">
					<dim>1</dim>
					<dim>256</dim>
					<dim>1</dim>
					<dim>1</dim>
				</port>
			</input>
			<output>
				<port id="2" precision="FP32" names="308">
					<dim>1</dim>
					<dim>256</dim>
					<dim>8</dim>
					<dim>10</dim>
				</port>
			</output>
		</layer>
		<layer id="201" name="309" type="ReLU" version="opset1">
			<input>
				<port id="0" precision="FP32">
					<dim>1</dim>
					<dim>256</dim>
					<dim>8</dim>
					<dim>10</dim>
				</port>
			</input>
			<output>
				<port id="1" precision="FP32" names="309">
					<dim>1</dim>
					<dim>256</dim>
					<dim>8</dim>
					<dim>10</dim>
				</port>
			</output>
		</layer>
		<layer id="202" name="Multiply_7557_compressed" type="Const" version="opset1">
			<data element_type="f16" shape="256, 1, 1, 3, 3" offset="206700" size="4608" />
			<output>
				<port id="0" precision="FP16">
					<dim>256</dim>
					<dim>1</dim>
					<dim>1</dim>
					<dim>3</dim>
					<dim>3</dim>
				</port>
			</output>
		</layer>
		<layer id="203" name="Multiply_7557" type="Convert" version="opset1">
			<data destination_type="f32" />
			<rt_info>
				<attribute name="decompression" version="0" />
			</rt_info>
			<input>
				<port id="0" precision="FP16">
					<dim>256</dim>
					<dim>1</dim>
					<dim>1</dim>
					<dim>3</dim>
					<dim>3</dim>
				</port>
			</input>
			<output>
				<port id="1" precision="FP32">
					<dim>256</dim>
					<dim>1</dim>
					<dim>1</dim>
					<dim>3</dim>
					<dim>3</dim>
				</port>
			</output>
		</layer>
		<layer id="204" name="Multiply_7457" type="GroupConvolution" version="opset1">
			<data strides="1, 1" pads_begin="1, 1" pads_end="1, 1" dilations="1, 1" auto_pad="explicit" />
			<input>
				<port id="0" precision="FP32">
					<dim>1</dim>
					<dim>256</dim>
					<dim>8</dim>
					<dim>10</dim>
				</port>
				<port id="1" precision="FP32">
					<dim>256</dim>
					<dim>1</dim>
					<dim>1</dim>
					<dim>3</dim>
					<dim>3</dim>
				</port>
			</input>
			<output>
				<port id="2" precision="FP32" names="310">
					<dim>1</dim>
					<dim>256</dim>
					<dim>8</dim>
					<dim>10</dim>
				</port>
			</output>
		</layer>
		<layer id="205" name="Constant_7462_compressed" type="Const" version="opset1">
			<data element_type="f16" shape="1, 256, 1, 1" offset="211308" size="512" />
			<output>
				<port id="0" precision="FP16">
					<dim>1</dim>
					<dim>256</dim>
					<dim>1</dim>
					<dim>1</dim>
				</port>
			</output>
		</layer>
		<layer id="206" name="Constant_7462" type="Convert" version="opset1">
			<data destination_type="f32" />
			<rt_info>
				<attribute name="decompression" version="0" />
			</rt_info>
			<input>
				<port id="0" precision="FP16">
					<dim>1</dim>
					<dim>256</dim>
					<dim>1</dim>
					<dim>1</dim>
				</port>
			</input>
			<output>
				<port id="1" precision="FP32">
					<dim>1</dim>
					<dim>256</dim>
					<dim>1</dim>
					<dim>1</dim>
				</port>
			</output>
		</layer>
		<layer id="207" name="311" type="Add" version="opset1">
			<data auto_broadcast="numpy" />
			<input>
				<port id="0" precision="FP32">
					<dim>1</dim>
					<dim>256</dim>
					<dim>8</dim>
					<dim>10</dim>
				</port>
				<port id="1" precision="FP32">
					<dim>1</dim>
					<dim>256</dim>
					<dim>1</dim>
					<dim>1</dim>
				</port>
			</input>
			<output>
				<port id="2" precision="FP32" names="311">
					<dim>1</dim>
					<dim>256</dim>
					<dim>8</dim>
					<dim>10</dim>
				</port>
			</output>
		</layer>
		<layer id="208" name="312" type="ReLU" version="opset1">
			<input>
				<port id="0" precision="FP32">
					<dim>1</dim>
					<dim>256</dim>
					<dim>8</dim>
					<dim>10</dim>
				</port>
			</input>
			<output>
				<port id="1" precision="FP32" names="312">
					<dim>1</dim>
					<dim>256</dim>
					<dim>8</dim>
					<dim>10</dim>
				</port>
			</output>
		</layer>
		<layer id="209" name="Multiply_7560_compressed" type="Const" version="opset1">
			<data element_type="f16" shape="256, 256, 1, 1" offset="211820" size="131072" />
			<output>
				<port id="0" precision="FP16">
					<dim>256</dim>
					<dim>256</dim>
					<dim>1</dim>
					<dim>1</dim>
				</port>
			</output>
		</layer>
		<layer id="210" name="Multiply_7560" type="Convert" version="opset1">
			<data destination_type="f32" />
			<rt_info>
				<attribute name="decompression" version="0" />
			</rt_info>
			<input>
				<port id="0" precision="FP16">
					<dim>256</dim>
					<dim>256</dim>
					<dim>1</dim>
					<dim>1</dim>
				</port>
			</input>
			<output>
				<port id="1" precision="FP32">
					<dim>256</dim>
					<dim>256</dim>
					<dim>1</dim>
					<dim>1</dim>
				</port>
			</output>
		</layer>
		<layer id="211" name="Multiply_7464" type="Convolution" version="opset1">
			<data strides="1, 1" dilations="1, 1" pads_begin="0, 0" pads_end="0, 0" auto_pad="explicit" />
			<input>
				<port id="0" precision="FP32">
					<dim>1</dim>
					<dim>256</dim>
					<dim>8</dim>
					<dim>10</dim>
				</port>
				<port id="1" precision="FP32">
					<dim>256</dim>
					<dim>256</dim>
					<dim>1</dim>
					<dim>1</dim>
				</port>
			</input>
			<output>
				<port id="2" precision="FP32">
					<dim>1</dim>
					<dim>256</dim>
					<dim>8</dim>
					<dim>10</dim>
				</port>
			</output>
		</layer>
		<layer id="212" name="Constant_7469_compressed" type="Const" version="opset1">
			<data element_type="f16" shape="1, 256, 1, 1" offset="342892" size="512" />
			<output>
				<port id="0" precision="FP16">
					<dim>1</dim>
					<dim>256</dim>
					<dim>1</dim>
					<dim>1</dim>
				</port>
			</output>
		</layer>
		<layer id="213" name="Constant_7469" type="Convert" version="opset1">
			<data destination_type="f32" />
			<rt_info>
				<attribute name="decompression" version="0" />
			</rt_info>
			<input>
				<port id="0" precision="FP16">
					<dim>1</dim>
					<dim>256</dim>
					<dim>1</dim>
					<dim>1</dim>
				</port>
			</input>
			<output>
				<port id="1" precision="FP32">
					<dim>1</dim>
					<dim>256</dim>
					<dim>1</dim>
					<dim>1</dim>
				</port>
			</output>
		</layer>
		<layer id="214" name="314" type="Add" version="opset1">
			<data auto_broadcast="numpy" />
			<input>
				<port id="0" precision="FP32">
					<dim>1</dim>
					<dim>256</dim>
					<dim>8</dim>
					<dim>10</dim>
				</port>
				<port id="1" precision="FP32">
					<dim>1</dim>
					<dim>256</dim>
					<dim>1</dim>
					<dim>1</dim>
				</port>
			</input>
			<output>
				<port id="2" precision="FP32" names="314">
					<dim>1</dim>
					<dim>256</dim>
					<dim>8</dim>
					<dim>10</dim>
				</port>
			</output>
		</layer>
		<layer id="215" name="315" type="ReLU" version="opset1">
			<input>
				<port id="0" precision="FP32">
					<dim>1</dim>
					<dim>256</dim>
					<dim>8</dim>
					<dim>10</dim>
				</port>
			</input>
			<output>
				<port id="1" precision="FP32" names="315">
					<dim>1</dim>
					<dim>256</dim>
					<dim>8</dim>
					<dim>10</dim>
				</port>
			</output>
		</layer>
		<layer id="216" name="Reshape_1290_compressed" type="Const" version="opset1">
			<data element_type="f16" shape="256, 1, 1, 3, 3" offset="343404" size="4608" />
			<output>
				<port id="0" precision="FP16">
					<dim>256</dim>
					<dim>1</dim>
					<dim>1</dim>
					<dim>3</dim>
					<dim>3</dim>
				</port>
			</output>
		</layer>
		<layer id="217" name="Reshape_1290" type="Convert" version="opset1">
			<data destination_type="f32" />
			<rt_info>
				<attribute name="decompression" version="0" />
			</rt_info>
			<input>
				<port id="0" precision="FP16">
					<dim>256</dim>
					<dim>1</dim>
					<dim>1</dim>
					<dim>3</dim>
					<dim>3</dim>
				</port>
			</input>
			<output>
				<port id="1" precision="FP32">
					<dim>256</dim>
					<dim>1</dim>
					<dim>1</dim>
					<dim>3</dim>
					<dim>3</dim>
				</port>
			</output>
		</layer>
		<layer id="218" name="330/WithoutBiases" type="GroupConvolution" version="opset1">
			<data strides="1, 1" pads_begin="1, 1" pads_end="1, 1" dilations="1, 1" auto_pad="explicit" />
			<input>
				<port id="0" precision="FP32">
					<dim>1</dim>
					<dim>256</dim>
					<dim>8</dim>
					<dim>10</dim>
				</port>
				<port id="1" precision="FP32">
					<dim>256</dim>
					<dim>1</dim>
					<dim>1</dim>
					<dim>3</dim>
					<dim>3</dim>
				</port>
			</input>
			<output>
				<port id="2" precision="FP32">
					<dim>1</dim>
					<dim>256</dim>
					<dim>8</dim>
					<dim>10</dim>
				</port>
			</output>
		</layer>
		<layer id="219" name="Reshape_1340_compressed" type="Const" version="opset1">
			<data element_type="f16" shape="1, 256, 1, 1" offset="348012" size="512" />
			<output>
				<port id="0" precision="FP16">
					<dim>1</dim>
					<dim>256</dim>
					<dim>1</dim>
					<dim>1</dim>
				</port>
			</output>
		</layer>
		<layer id="220" name="Reshape_1340" type="Convert" version="opset1">
			<data destination_type="f32" />
			<rt_info>
				<attribute name="decompression" version="0" />
			</rt_info>
			<input>
				<port id="0" precision="FP16">
					<dim>1</dim>
					<dim>256</dim>
					<dim>1</dim>
					<dim>1</dim>
				</port>
			</input>
			<output>
				<port id="1" precision="FP32">
					<dim>1</dim>
					<dim>256</dim>
					<dim>1</dim>
					<dim>1</dim>
				</port>
			</output>
		</layer>
		<layer id="221" name="330" type="Add" version="opset1">
			<data auto_broadcast="numpy" />
			<input>
				<port id="0" precision="FP32">
					<dim>1</dim>
					<dim>256</dim>
					<dim>8</dim>
					<dim>10</dim>
				</port>
				<port id="1" precision="FP32">
					<dim>1</dim>
					<dim>256</dim>
					<dim>1</dim>
					<dim>1</dim>
				</port>
			</input>
			<output>
				<port id="2" precision="FP32" names="330">
					<dim>1</dim>
					<dim>256</dim>
					<dim>8</dim>
					<dim>10</dim>
				</port>
			</output>
		</layer>
		<layer id="222" name="331" type="ReLU" version="opset1">
			<input>
				<port id="0" precision="FP32">
					<dim>1</dim>
					<dim>256</dim>
					<dim>8</dim>
					<dim>10</dim>
				</port>
			</input>
			<output>
				<port id="1" precision="FP32" names="331">
					<dim>1</dim>
					<dim>256</dim>
					<dim>8</dim>
					<dim>10</dim>
				</port>
			</output>
		</layer>
		<layer id="223" name="regression_headers.2.2.weight_compressed" type="Const" version="opset1">
			<data element_type="f16" shape="8, 256, 1, 1" offset="348524" size="4096" />
			<output>
				<port id="0" precision="FP16">
					<dim>8</dim>
					<dim>256</dim>
					<dim>1</dim>
					<dim>1</dim>
				</port>
			</output>
		</layer>
		<layer id="224" name="regression_headers.2.2.weight" type="Convert" version="opset1">
			<data destination_type="f32" />
			<rt_info>
				<attribute name="decompression" version="0" />
			</rt_info>
			<input>
				<port id="0" precision="FP16">
					<dim>8</dim>
					<dim>256</dim>
					<dim>1</dim>
					<dim>1</dim>
				</port>
			</input>
			<output>
				<port id="1" precision="FP32" names="regression_headers.2.2.weight">
					<dim>8</dim>
					<dim>256</dim>
					<dim>1</dim>
					<dim>1</dim>
				</port>
			</output>
		</layer>
		<layer id="225" name="332/WithoutBiases" type="Convolution" version="opset1">
			<data strides="1, 1" dilations="1, 1" pads_begin="0, 0" pads_end="0, 0" auto_pad="explicit" />
			<input>
				<port id="0" precision="FP32">
					<dim>1</dim>
					<dim>256</dim>
					<dim>8</dim>
					<dim>10</dim>
				</port>
				<port id="1" precision="FP32">
					<dim>8</dim>
					<dim>256</dim>
					<dim>1</dim>
					<dim>1</dim>
				</port>
			</input>
			<output>
				<port id="2" precision="FP32">
					<dim>1</dim>
					<dim>8</dim>
					<dim>8</dim>
					<dim>10</dim>
				</port>
			</output>
		</layer>
		<layer id="226" name="Reshape_1354_compressed" type="Const" version="opset1">
			<data element_type="f16" shape="1, 8, 1, 1" offset="352620" size="16" />
			<output>
				<port id="0" precision="FP16">
					<dim>1</dim>
					<dim>8</dim>
					<dim>1</dim>
					<dim>1</dim>
				</port>
			</output>
		</layer>
		<layer id="227" name="Reshape_1354" type="Convert" version="opset1">
			<data destination_type="f32" />
			<rt_info>
				<attribute name="decompression" version="0" />
			</rt_info>
			<input>
				<port id="0" precision="FP16">
					<dim>1</dim>
					<dim>8</dim>
					<dim>1</dim>
					<dim>1</dim>
				</port>
			</input>
			<output>
				<port id="1" precision="FP32">
					<dim>1</dim>
					<dim>8</dim>
					<dim>1</dim>
					<dim>1</dim>
				</port>
			</output>
		</layer>
		<layer id="228" name="332" type="Add" version="opset1">
			<data auto_broadcast="numpy" />
			<input>
				<port id="0" precision="FP32">
					<dim>1</dim>
					<dim>8</dim>
					<dim>8</dim>
					<dim>10</dim>
				</port>
				<port id="1" precision="FP32">
					<dim>1</dim>
					<dim>8</dim>
					<dim>1</dim>
					<dim>1</dim>
				</port>
			</input>
			<output>
				<port id="2" precision="FP32" names="332">
					<dim>1</dim>
					<dim>8</dim>
					<dim>8</dim>
					<dim>10</dim>
				</port>
			</output>
		</layer>
		<layer id="229" name="Constant_1356" type="Const" version="opset1">
			<data element_type="i64" shape="4" offset="44324" size="32" />
			<output>
				<port id="0" precision="I64">
					<dim>4</dim>
				</port>
			</output>
		</layer>
		<layer id="230" name="333" type="Transpose" version="opset1">
			<input>
				<port id="0" precision="FP32">
					<dim>1</dim>
					<dim>8</dim>
					<dim>8</dim>
					<dim>10</dim>
				</port>
				<port id="1" precision="I64">
					<dim>4</dim>
				</port>
			</input>
			<output>
				<port id="2" precision="FP32" names="333">
					<dim>1</dim>
					<dim>8</dim>
					<dim>10</dim>
					<dim>8</dim>
				</port>
			</output>
		</layer>
		<layer id="231" name="342" type="Const" version="opset1">
			<data element_type="i64" shape="3" offset="44356" size="24" />
			<rt_info>
				<attribute name="precise" version="0" />
			</rt_info>
			<output>
				<port id="0" precision="I64">
					<dim>3</dim>
				</port>
			</output>
		</layer>
		<layer id="232" name="343" type="Reshape" version="opset1">
			<data special_zero="true" />
			<input>
				<port id="0" precision="FP32">
					<dim>1</dim>
					<dim>8</dim>
					<dim>10</dim>
					<dim>8</dim>
				</port>
				<port id="1" precision="I64">
					<dim>3</dim>
				</port>
			</input>
			<output>
				<port id="2" precision="FP32" names="343">
					<dim>1</dim>
					<dim>160</dim>
					<dim>4</dim>
				</port>
			</output>
		</layer>
		<layer id="233" name="extras.0.0.weight_compressed" type="Const" version="opset1">
			<data element_type="f16" shape="64, 256, 1, 1" offset="352636" size="32768" />
			<output>
				<port id="0" precision="FP16">
					<dim>64</dim>
					<dim>256</dim>
					<dim>1</dim>
					<dim>1</dim>
				</port>
			</output>
		</layer>
		<layer id="234" name="extras.0.0.weight" type="Convert" version="opset1">
			<data destination_type="f32" />
			<rt_info>
				<attribute name="decompression" version="0" />
			</rt_info>
			<input>
				<port id="0" precision="FP16">
					<dim>64</dim>
					<dim>256</dim>
					<dim>1</dim>
					<dim>1</dim>
				</port>
			</input>
			<output>
				<port id="1" precision="FP32" names="extras.0.0.weight">
					<dim>64</dim>
					<dim>256</dim>
					<dim>1</dim>
					<dim>1</dim>
				</port>
			</output>
		</layer>
		<layer id="235" name="344/WithoutBiases" type="Convolution" version="opset1">
			<data strides="1, 1" dilations="1, 1" pads_begin="0, 0" pads_end="0, 0" auto_pad="explicit" />
			<input>
				<port id="0" precision="FP32">
					<dim>1</dim>
					<dim>256</dim>
					<dim>8</dim>
					<dim>10</dim>
				</port>
				<port id="1" precision="FP32">
					<dim>64</dim>
					<dim>256</dim>
					<dim>1</dim>
					<dim>1</dim>
				</port>
			</input>
			<output>
				<port id="2" precision="FP32">
					<dim>1</dim>
					<dim>64</dim>
					<dim>8</dim>
					<dim>10</dim>
				</port>
			</output>
		</layer>
		<layer id="236" name="Reshape_1383_compressed" type="Const" version="opset1">
			<data element_type="f16" shape="1, 64, 1, 1" offset="385404" size="128" />
			<output>
				<port id="0" precision="FP16">
					<dim>1</dim>
					<dim>64</dim>
					<dim>1</dim>
					<dim>1</dim>
				</port>
			</output>
		</layer>
		<layer id="237" name="Reshape_1383" type="Convert" version="opset1">
			<data destination_type="f32" />
			<rt_info>
				<attribute name="decompression" version="0" />
			</rt_info>
			<input>
				<port id="0" precision="FP16">
					<dim>1</dim>
					<dim>64</dim>
					<dim>1</dim>
					<dim>1</dim>
				</port>
			</input>
			<output>
				<port id="1" precision="FP32">
					<dim>1</dim>
					<dim>64</dim>
					<dim>1</dim>
					<dim>1</dim>
				</port>
			</output>
		</layer>
		<layer id="238" name="344" type="Add" version="opset1">
			<data auto_broadcast="numpy" />
			<input>
				<port id="0" precision="FP32">
					<dim>1</dim>
					<dim>64</dim>
					<dim>8</dim>
					<dim>10</dim>
				</port>
				<port id="1" precision="FP32">
					<dim>1</dim>
					<dim>64</dim>
					<dim>1</dim>
					<dim>1</dim>
				</port>
			</input>
			<output>
				<port id="2" precision="FP32" names="344">
					<dim>1</dim>
					<dim>64</dim>
					<dim>8</dim>
					<dim>10</dim>
				</port>
			</output>
		</layer>
		<layer id="239" name="345" type="ReLU" version="opset1">
			<input>
				<port id="0" precision="FP32">
					<dim>1</dim>
					<dim>64</dim>
					<dim>8</dim>
					<dim>10</dim>
				</port>
			</input>
			<output>
				<port id="1" precision="FP32" names="345">
					<dim>1</dim>
					<dim>64</dim>
					<dim>8</dim>
					<dim>10</dim>
				</port>
			</output>
		</layer>
		<layer id="240" name="Reshape_1393_compressed" type="Const" version="opset1">
			<data element_type="f16" shape="64, 1, 1, 3, 3" offset="385532" size="1152" />
			<output>
				<port id="0" precision="FP16">
					<dim>64</dim>
					<dim>1</dim>
					<dim>1</dim>
					<dim>3</dim>
					<dim>3</dim>
				</port>
			</output>
		</layer>
		<layer id="241" name="Reshape_1393" type="Convert" version="opset1">
			<data destination_type="f32" />
			<rt_info>
				<attribute name="decompression" version="0" />
			</rt_info>
			<input>
				<port id="0" precision="FP16">
					<dim>64</dim>
					<dim>1</dim>
					<dim>1</dim>
					<dim>3</dim>
					<dim>3</dim>
				</port>
			</input>
			<output>
				<port id="1" precision="FP32">
					<dim>64</dim>
					<dim>1</dim>
					<dim>1</dim>
					<dim>3</dim>
					<dim>3</dim>
				</port>
			</output>
		</layer>
		<layer id="242" name="346/WithoutBiases" type="GroupConvolution" version="opset1">
			<data strides="2, 2" pads_begin="1, 1" pads_end="1, 1" dilations="1, 1" auto_pad="explicit" />
			<input>
				<port id="0" precision="FP32">
					<dim>1</dim>
					<dim>64</dim>
					<dim>8</dim>
					<dim>10</dim>
				</port>
				<port id="1" precision="FP32">
					<dim>64</dim>
					<dim>1</dim>
					<dim>1</dim>
					<dim>3</dim>
					<dim>3</dim>
				</port>
			</input>
			<output>
				<port id="2" precision="FP32">
					<dim>1</dim>
					<dim>64</dim>
					<dim>4</dim>
					<dim>5</dim>
				</port>
			</output>
		</layer>
		<layer id="243" name="Reshape_1443_compressed" type="Const" version="opset1">
			<data element_type="f16" shape="1, 64, 1, 1" offset="386684" size="128" />
			<output>
				<port id="0" precision="FP16">
					<dim>1</dim>
					<dim>64</dim>
					<dim>1</dim>
					<dim>1</dim>
				</port>
			</output>
		</layer>
		<layer id="244" name="Reshape_1443" type="Convert" version="opset1">
			<data destination_type="f32" />
			<rt_info>
				<attribute name="decompression" version="0" />
			</rt_info>
			<input>
				<port id="0" precision="FP16">
					<dim>1</dim>
					<dim>64</dim>
					<dim>1</dim>
					<dim>1</dim>
				</port>
			</input>
			<output>
				<port id="1" precision="FP32">
					<dim>1</dim>
					<dim>64</dim>
					<dim>1</dim>
					<dim>1</dim>
				</port>
			</output>
		</layer>
		<layer id="245" name="346" type="Add" version="opset1">
			<data auto_broadcast="numpy" />
			<input>
				<port id="0" precision="FP32">
					<dim>1</dim>
					<dim>64</dim>
					<dim>4</dim>
					<dim>5</dim>
				</port>
				<port id="1" precision="FP32">
					<dim>1</dim>
					<dim>64</dim>
					<dim>1</dim>
					<dim>1</dim>
				</port>
			</input>
			<output>
				<port id="2" precision="FP32" names="346">
					<dim>1</dim>
					<dim>64</dim>
					<dim>4</dim>
					<dim>5</dim>
				</port>
			</output>
		</layer>
		<layer id="246" name="347" type="ReLU" version="opset1">
			<input>
				<port id="0" precision="FP32">
					<dim>1</dim>
					<dim>64</dim>
					<dim>4</dim>
					<dim>5</dim>
				</port>
			</input>
			<output>
				<port id="1" precision="FP32" names="347">
					<dim>1</dim>
					<dim>64</dim>
					<dim>4</dim>
					<dim>5</dim>
				</port>
			</output>
		</layer>
		<layer id="247" name="extras.0.2.2.weight_compressed" type="Const" version="opset1">
			<data element_type="f16" shape="256, 64, 1, 1" offset="386812" size="32768" />
			<output>
				<port id="0" precision="FP16">
					<dim>256</dim>
					<dim>64</dim>
					<dim>1</dim>
					<dim>1</dim>
				</port>
			</output>
		</layer>
		<layer id="248" name="extras.0.2.2.weight" type="Convert" version="opset1">
			<data destination_type="f32" />
			<rt_info>
				<attribute name="decompression" version="0" />
			</rt_info>
			<input>
				<port id="0" precision="FP16">
					<dim>256</dim>
					<dim>64</dim>
					<dim>1</dim>
					<dim>1</dim>
				</port>
			</input>
			<output>
				<port id="1" precision="FP32" names="extras.0.2.2.weight">
					<dim>256</dim>
					<dim>64</dim>
					<dim>1</dim>
					<dim>1</dim>
				</port>
			</output>
		</layer>
		<layer id="249" name="348/WithoutBiases" type="Convolution" version="opset1">
			<data strides="1, 1" dilations="1, 1" pads_begin="0, 0" pads_end="0, 0" auto_pad="explicit" />
			<input>
				<port id="0" precision="FP32">
					<dim>1</dim>
					<dim>64</dim>
					<dim>4</dim>
					<dim>5</dim>
				</port>
				<port id="1" precision="FP32">
					<dim>256</dim>
					<dim>64</dim>
					<dim>1</dim>
					<dim>1</dim>
				</port>
			</input>
			<output>
				<port id="2" precision="FP32">
					<dim>1</dim>
					<dim>256</dim>
					<dim>4</dim>
					<dim>5</dim>
				</port>
			</output>
		</layer>
		<layer id="250" name="Reshape_1457_compressed" type="Const" version="opset1">
			<data element_type="f16" shape="1, 256, 1, 1" offset="419580" size="512" />
			<output>
				<port id="0" precision="FP16">
					<dim>1</dim>
					<dim>256</dim>
					<dim>1</dim>
					<dim>1</dim>
				</port>
			</output>
		</layer>
		<layer id="251" name="Reshape_1457" type="Convert" version="opset1">
			<data destination_type="f32" />
			<rt_info>
				<attribute name="decompression" version="0" />
			</rt_info>
			<input>
				<port id="0" precision="FP16">
					<dim>1</dim>
					<dim>256</dim>
					<dim>1</dim>
					<dim>1</dim>
				</port>
			</input>
			<output>
				<port id="1" precision="FP32">
					<dim>1</dim>
					<dim>256</dim>
					<dim>1</dim>
					<dim>1</dim>
				</port>
			</output>
		</layer>
		<layer id="252" name="348" type="Add" version="opset1">
			<data auto_broadcast="numpy" />
			<input>
				<port id="0" precision="FP32">
					<dim>1</dim>
					<dim>256</dim>
					<dim>4</dim>
					<dim>5</dim>
				</port>
				<port id="1" precision="FP32">
					<dim>1</dim>
					<dim>256</dim>
					<dim>1</dim>
					<dim>1</dim>
				</port>
			</input>
			<output>
				<port id="2" precision="FP32" names="348">
					<dim>1</dim>
					<dim>256</dim>
					<dim>4</dim>
					<dim>5</dim>
				</port>
			</output>
		</layer>
		<layer id="253" name="349" type="ReLU" version="opset1">
			<input>
				<port id="0" precision="FP32">
					<dim>1</dim>
					<dim>256</dim>
					<dim>4</dim>
					<dim>5</dim>
				</port>
			</input>
			<output>
				<port id="1" precision="FP32" names="349">
					<dim>1</dim>
					<dim>256</dim>
					<dim>4</dim>
					<dim>5</dim>
				</port>
			</output>
		</layer>
		<layer id="254" name="regression_headers.3.weight_compressed" type="Const" version="opset1">
			<data element_type="f16" shape="12, 256, 3, 3" offset="420092" size="55296" />
			<output>
				<port id="0" precision="FP16">
					<dim>12</dim>
					<dim>256</dim>
					<dim>3</dim>
					<dim>3</dim>
				</port>
			</output>
		</layer>
		<layer id="255" name="regression_headers.3.weight" type="Convert" version="opset1">
			<data destination_type="f32" />
			<rt_info>
				<attribute name="decompression" version="0" />
			</rt_info>
			<input>
				<port id="0" precision="FP16">
					<dim>12</dim>
					<dim>256</dim>
					<dim>3</dim>
					<dim>3</dim>
				</port>
			</input>
			<output>
				<port id="1" precision="FP32" names="regression_headers.3.weight">
					<dim>12</dim>
					<dim>256</dim>
					<dim>3</dim>
					<dim>3</dim>
				</port>
			</output>
		</layer>
		<layer id="256" name="362/WithoutBiases" type="Convolution" version="opset1">
			<data strides="1, 1" dilations="1, 1" pads_begin="1, 1" pads_end="1, 1" auto_pad="explicit" />
			<input>
				<port id="0" precision="FP32">
					<dim>1</dim>
					<dim>256</dim>
					<dim>4</dim>
					<dim>5</dim>
				</port>
				<port id="1" precision="FP32">
					<dim>12</dim>
					<dim>256</dim>
					<dim>3</dim>
					<dim>3</dim>
				</port>
			</input>
			<output>
				<port id="2" precision="FP32">
					<dim>1</dim>
					<dim>12</dim>
					<dim>4</dim>
					<dim>5</dim>
				</port>
			</output>
		</layer>
		<layer id="257" name="Reshape_1500_compressed" type="Const" version="opset1">
			<data element_type="f16" shape="1, 12, 1, 1" offset="475388" size="24" />
			<output>
				<port id="0" precision="FP16">
					<dim>1</dim>
					<dim>12</dim>
					<dim>1</dim>
					<dim>1</dim>
				</port>
			</output>
		</layer>
		<layer id="258" name="Reshape_1500" type="Convert" version="opset1">
			<data destination_type="f32" />
			<rt_info>
				<attribute name="decompression" version="0" />
			</rt_info>
			<input>
				<port id="0" precision="FP16">
					<dim>1</dim>
					<dim>12</dim>
					<dim>1</dim>
					<dim>1</dim>
				</port>
			</input>
			<output>
				<port id="1" precision="FP32">
					<dim>1</dim>
					<dim>12</dim>
					<dim>1</dim>
					<dim>1</dim>
				</port>
			</output>
		</layer>
		<layer id="259" name="362" type="Add" version="opset1">
			<data auto_broadcast="numpy" />
			<input>
				<port id="0" precision="FP32">
					<dim>1</dim>
					<dim>12</dim>
					<dim>4</dim>
					<dim>5</dim>
				</port>
				<port id="1" precision="FP32">
					<dim>1</dim>
					<dim>12</dim>
					<dim>1</dim>
					<dim>1</dim>
				</port>
			</input>
			<output>
				<port id="2" precision="FP32" names="362">
					<dim>1</dim>
					<dim>12</dim>
					<dim>4</dim>
					<dim>5</dim>
				</port>
			</output>
		</layer>
		<layer id="260" name="Constant_1502" type="Const" version="opset1">
			<data element_type="i64" shape="4" offset="44324" size="32" />
			<output>
				<port id="0" precision="I64">
					<dim>4</dim>
				</port>
			</output>
		</layer>
		<layer id="261" name="363" type="Transpose" version="opset1">
			<input>
				<port id="0" precision="FP32">
					<dim>1</dim>
					<dim>12</dim>
					<dim>4</dim>
					<dim>5</dim>
				</port>
				<port id="1" precision="I64">
					<dim>4</dim>
				</port>
			</input>
			<output>
				<port id="2" precision="FP32" names="363">
					<dim>1</dim>
					<dim>4</dim>
					<dim>5</dim>
					<dim>12</dim>
				</port>
			</output>
		</layer>
		<layer id="262" name="372" type="Const" version="opset1">
			<data element_type="i64" shape="3" offset="44356" size="24" />
			<rt_info>
				<attribute name="precise" version="0" />
			</rt_info>
			<output>
				<port id="0" precision="I64">
					<dim>3</dim>
				</port>
			</output>
		</layer>
		<layer id="263" name="373" type="Reshape" version="opset1">
			<data special_zero="true" />
			<input>
				<port id="0" precision="FP32">
					<dim>1</dim>
					<dim>4</dim>
					<dim>5</dim>
					<dim>12</dim>
				</port>
				<port id="1" precision="I64">
					<dim>3</dim>
				</port>
			</input>
			<output>
				<port id="2" precision="FP32" names="373">
					<dim>1</dim>
					<dim>60</dim>
					<dim>4</dim>
				</port>
			</output>
		</layer>
		<layer id="264" name="375" type="Concat" version="opset1">
			<data axis="1" />
			<input>
				<port id="0" precision="FP32">
					<dim>1</dim>
					<dim>3600</dim>
					<dim>4</dim>
				</port>
				<port id="1" precision="FP32">
					<dim>1</dim>
					<dim>600</dim>
					<dim>4</dim>
				</port>
				<port id="2" precision="FP32">
					<dim>1</dim>
					<dim>160</dim>
					<dim>4</dim>
				</port>
				<port id="3" precision="FP32">
					<dim>1</dim>
					<dim>60</dim>
					<dim>4</dim>
				</port>
			</input>
			<output>
				<port id="4" precision="FP32" names="375">
					<dim>1</dim>
					<dim>4420</dim>
					<dim>4</dim>
				</port>
			</output>
		</layer>
		<layer id="265" name="Constant_1554" type="Const" version="opset1">
			<data element_type="i64" shape="1" offset="475412" size="8" />
			<output>
				<port id="0" precision="I64">
					<dim>1</dim>
				</port>
			</output>
		</layer>
		<layer id="266" name="Constant_1553" type="Const" version="opset1">
			<data element_type="i64" shape="1" offset="475420" size="8" />
			<output>
				<port id="0" precision="I64">
					<dim>1</dim>
				</port>
			</output>
		</layer>
		<layer id="267" name="Constant_1555" type="Const" version="opset1">
			<data element_type="i64" shape="1" offset="475428" size="8" />
			<output>
				<port id="0" precision="I64">
					<dim>1</dim>
				</port>
			</output>
		</layer>
		<layer id="268" name="Constant_1556" type="Const" version="opset1">
			<data element_type="i64" shape="1" offset="475420" size="8" />
			<output>
				<port id="0" precision="I64">
					<dim>1</dim>
				</port>
			</output>
		</layer>
		<layer id="269" name="377" type="Slice" version="opset8">
			<input>
				<port id="0" precision="FP32">
					<dim>1</dim>
					<dim>4420</dim>
					<dim>4</dim>
				</port>
				<port id="1" precision="I64">
					<dim>1</dim>
				</port>
				<port id="2" precision="I64">
					<dim>1</dim>
				</port>
				<port id="3" precision="I64">
					<dim>1</dim>
				</port>
				<port id="4" precision="I64">
					<dim>1</dim>
				</port>
			</input>
			<output>
				<port id="5" precision="FP32" names="377">
					<dim>1</dim>
					<dim>4420</dim>
					<dim>2</dim>
				</port>
			</output>
		</layer>
		<layer id="270" name="Constant_7472_compressed" type="Const" version="opset1">
			<data element_type="f16" shape="1, 4420, 2" offset="475436" size="17680" />
			<output>
				<port id="0" precision="FP16">
					<dim>1</dim>
					<dim>4420</dim>
					<dim>2</dim>
				</port>
			</output>
		</layer>
		<layer id="271" name="Constant_7472" type="Convert" version="opset1">
			<data destination_type="f32" />
			<rt_info>
				<attribute name="decompression" version="0" />
			</rt_info>
			<input>
				<port id="0" precision="FP16">
					<dim>1</dim>
					<dim>4420</dim>
					<dim>2</dim>
				</port>
			</input>
			<output>
				<port id="1" precision="FP32">
					<dim>1</dim>
					<dim>4420</dim>
					<dim>2</dim>
				</port>
			</output>
		</layer>
		<layer id="272" name="381" type="Multiply" version="opset1">
			<data auto_broadcast="numpy" />
			<input>
				<port id="0" precision="FP32">
					<dim>1</dim>
					<dim>4420</dim>
					<dim>2</dim>
				</port>
				<port id="1" precision="FP32">
					<dim>1</dim>
					<dim>4420</dim>
					<dim>2</dim>
				</port>
			</input>
			<output>
				<port id="2" precision="FP32" names="381">
					<dim>1</dim>
					<dim>4420</dim>
					<dim>2</dim>
				</port>
			</output>
		</layer>
		<layer id="273" name="382_compressed" type="Const" version="opset1">
			<data element_type="f16" shape="1, 4420, 2" offset="493116" size="17680" />
			<output>
				<port id="0" precision="FP16">
					<dim>1</dim>
					<dim>4420</dim>
					<dim>2</dim>
				</port>
			</output>
		</layer>
		<layer id="274" name="382" type="Convert" version="opset1">
			<data destination_type="f32" />
			<rt_info>
				<attribute name="decompression" version="0" />
			</rt_info>
			<input>
				<port id="0" precision="FP16">
					<dim>1</dim>
					<dim>4420</dim>
					<dim>2</dim>
				</port>
			</input>
			<output>
				<port id="1" precision="FP32" names="382">
					<dim>1</dim>
					<dim>4420</dim>
					<dim>2</dim>
				</port>
			</output>
		</layer>
		<layer id="275" name="383" type="Add" version="opset1">
			<data auto_broadcast="numpy" />
			<input>
				<port id="0" precision="FP32">
					<dim>1</dim>
					<dim>4420</dim>
					<dim>2</dim>
				</port>
				<port id="1" precision="FP32">
					<dim>1</dim>
					<dim>4420</dim>
					<dim>2</dim>
				</port>
			</input>
			<output>
				<port id="2" precision="FP32" names="383">
					<dim>1</dim>
					<dim>4420</dim>
					<dim>2</dim>
				</port>
			</output>
		</layer>
		<layer id="276" name="Constant_1565" type="Const" version="opset1">
			<data element_type="i64" shape="1" offset="475420" size="8" />
			<output>
				<port id="0" precision="I64">
					<dim>1</dim>
				</port>
			</output>
		</layer>
		<layer id="277" name="Constant_1564" type="Const" version="opset1">
			<data element_type="i64" shape="1" offset="510796" size="8" />
			<output>
				<port id="0" precision="I64">
					<dim>1</dim>
				</port>
			</output>
		</layer>
		<layer id="278" name="Constant_1566" type="Const" version="opset1">
			<data element_type="i64" shape="1" offset="475428" size="8" />
			<output>
				<port id="0" precision="I64">
					<dim>1</dim>
				</port>
			</output>
		</layer>
		<layer id="279" name="Constant_1567" type="Const" version="opset1">
			<data element_type="i64" shape="1" offset="475420" size="8" />
			<output>
				<port id="0" precision="I64">
					<dim>1</dim>
				</port>
			</output>
		</layer>
		<layer id="280" name="384" type="Slice" version="opset8">
			<input>
				<port id="0" precision="FP32">
					<dim>1</dim>
					<dim>4420</dim>
					<dim>4</dim>
				</port>
				<port id="1" precision="I64">
					<dim>1</dim>
				</port>
				<port id="2" precision="I64">
					<dim>1</dim>
				</port>
				<port id="3" precision="I64">
					<dim>1</dim>
				</port>
				<port id="4" precision="I64">
					<dim>1</dim>
				</port>
			</input>
			<output>
				<port id="5" precision="FP32" names="384">
					<dim>1</dim>
					<dim>4420</dim>
					<dim>2</dim>
				</port>
			</output>
		</layer>
		<layer id="281" name="Constant_7730_compressed" type="Const" version="opset1">
			<data element_type="f16" shape="1, 1, 1" offset="510804" size="2" />
			<output>
				<port id="0" precision="FP16">
					<dim>1</dim>
					<dim>1</dim>
					<dim>1</dim>
				</port>
			</output>
		</layer>
		<layer id="282" name="Constant_7730" type="Convert" version="opset1">
			<data destination_type="f32" />
			<rt_info>
				<attribute name="decompression" version="0" />
			</rt_info>
			<input>
				<port id="0" precision="FP16">
					<dim>1</dim>
					<dim>1</dim>
					<dim>1</dim>
				</port>
			</input>
			<output>
				<port id="1" precision="FP32">
					<dim>1</dim>
					<dim>1</dim>
					<dim>1</dim>
				</port>
			</output>
		</layer>
		<layer id="283" name="386" type="Multiply" version="opset1">
			<data auto_broadcast="numpy" />
			<input>
				<port id="0" precision="FP32">
					<dim>1</dim>
					<dim>4420</dim>
					<dim>2</dim>
				</port>
				<port id="1" precision="FP32">
					<dim>1</dim>
					<dim>1</dim>
					<dim>1</dim>
				</port>
			</input>
			<output>
				<port id="2" precision="FP32" names="386">
					<dim>1</dim>
					<dim>4420</dim>
					<dim>2</dim>
				</port>
			</output>
		</layer>
		<layer id="284" name="387" type="Exp" version="opset1">
			<input>
				<port id="0" precision="FP32">
					<dim>1</dim>
					<dim>4420</dim>
					<dim>2</dim>
				</port>
			</input>
			<output>
				<port id="1" precision="FP32" names="387">
					<dim>1</dim>
					<dim>4420</dim>
					<dim>2</dim>
				</port>
			</output>
		</layer>
		<layer id="285" name="388_compressed" type="Const" version="opset1">
			<data element_type="f16" shape="1, 4420, 2" offset="510806" size="17680" />
			<output>
				<port id="0" precision="FP16">
					<dim>1</dim>
					<dim>4420</dim>
					<dim>2</dim>
				</port>
			</output>
		</layer>
		<layer id="286" name="388" type="Convert" version="opset1">
			<data destination_type="f32" />
			<rt_info>
				<attribute name="decompression" version="0" />
			</rt_info>
			<input>
				<port id="0" precision="FP16">
					<dim>1</dim>
					<dim>4420</dim>
					<dim>2</dim>
				</port>
			</input>
			<output>
				<port id="1" precision="FP32" names="388">
					<dim>1</dim>
					<dim>4420</dim>
					<dim>2</dim>
				</port>
			</output>
		</layer>
		<layer id="287" name="389" type="Multiply" version="opset1">
			<data auto_broadcast="numpy" />
			<input>
				<port id="0" precision="FP32">
					<dim>1</dim>
					<dim>4420</dim>
					<dim>2</dim>
				</port>
				<port id="1" precision="FP32">
					<dim>1</dim>
					<dim>4420</dim>
					<dim>2</dim>
				</port>
			</input>
			<output>
				<port id="2" precision="FP32" names="389">
					<dim>1</dim>
					<dim>4420</dim>
					<dim>2</dim>
				</port>
			</output>
		</layer>
		<layer id="288" name="390" type="Concat" version="opset1">
			<data axis="2" />
			<input>
				<port id="0" precision="FP32">
					<dim>1</dim>
					<dim>4420</dim>
					<dim>2</dim>
				</port>
				<port id="1" precision="FP32">
					<dim>1</dim>
					<dim>4420</dim>
					<dim>2</dim>
				</port>
			</input>
			<output>
				<port id="2" precision="FP32" names="390">
					<dim>1</dim>
					<dim>4420</dim>
					<dim>4</dim>
				</port>
			</output>
		</layer>
		<layer id="289" name="Constant_1576" type="Const" version="opset1">
			<data element_type="i64" shape="1" offset="475412" size="8" />
			<output>
				<port id="0" precision="I64">
					<dim>1</dim>
				</port>
			</output>
		</layer>
		<layer id="290" name="Constant_1575" type="Const" version="opset1">
			<data element_type="i64" shape="1" offset="475420" size="8" />
			<output>
				<port id="0" precision="I64">
					<dim>1</dim>
				</port>
			</output>
		</layer>
		<layer id="291" name="Constant_1577" type="Const" version="opset1">
			<data element_type="i64" shape="1" offset="475428" size="8" />
			<output>
				<port id="0" precision="I64">
					<dim>1</dim>
				</port>
			</output>
		</layer>
		<layer id="292" name="Constant_1578" type="Const" version="opset1">
			<data element_type="i64" shape="1" offset="475420" size="8" />
			<output>
				<port id="0" precision="I64">
					<dim>1</dim>
				</port>
			</output>
		</layer>
		<layer id="293" name="391" type="Slice" version="opset8">
			<input>
				<port id="0" precision="FP32">
					<dim>1</dim>
					<dim>4420</dim>
					<dim>4</dim>
				</port>
				<port id="1" precision="I64">
					<dim>1</dim>
				</port>
				<port id="2" precision="I64">
					<dim>1</dim>
				</port>
				<port id="3" precision="I64">
					<dim>1</dim>
				</port>
				<port id="4" precision="I64">
					<dim>1</dim>
				</port>
			</input>
			<output>
				<port id="5" precision="FP32" names="391,396">
					<dim>1</dim>
					<dim>4420</dim>
					<dim>2</dim>
				</port>
			</output>
		</layer>
		<layer id="294" name="Constant_1581" type="Const" version="opset1">
			<data element_type="i64" shape="1" offset="475420" size="8" />
			<output>
				<port id="0" precision="I64">
					<dim>1</dim>
				</port>
			</output>
		</layer>
		<layer id="295" name="Constant_1580" type="Const" version="opset1">
			<data element_type="i64" shape="1" offset="510796" size="8" />
			<output>
				<port id="0" precision="I64">
					<dim>1</dim>
				</port>
			</output>
		</layer>
		<layer id="296" name="Constant_1582" type="Const" version="opset1">
			<data element_type="i64" shape="1" offset="475428" size="8" />
			<output>
				<port id="0" precision="I64">
					<dim>1</dim>
				</port>
			</output>
		</layer>
		<layer id="297" name="Constant_1583" type="Const" version="opset1">
			<data element_type="i64" shape="1" offset="475420" size="8" />
			<output>
				<port id="0" precision="I64">
					<dim>1</dim>
				</port>
			</output>
		</layer>
		<layer id="298" name="392" type="Slice" version="opset8">
			<input>
				<port id="0" precision="FP32">
					<dim>1</dim>
					<dim>4420</dim>
					<dim>4</dim>
				</port>
				<port id="1" precision="I64">
					<dim>1</dim>
				</port>
				<port id="2" precision="I64">
					<dim>1</dim>
				</port>
				<port id="3" precision="I64">
					<dim>1</dim>
				</port>
				<port id="4" precision="I64">
					<dim>1</dim>
				</port>
			</input>
			<output>
				<port id="5" precision="FP32" names="392,397">
					<dim>1</dim>
					<dim>4420</dim>
					<dim>2</dim>
				</port>
			</output>
		</layer>
		<layer id="299" name="Constant_7731_compressed" type="Const" version="opset1">
			<data element_type="f16" shape="1, 1, 1" offset="528486" size="2" />
			<output>
				<port id="0" precision="FP16">
					<dim>1</dim>
					<dim>1</dim>
					<dim>1</dim>
				</port>
			</output>
		</layer>
		<layer id="300" name="Constant_7731" type="Convert" version="opset1">
			<data destination_type="f32" />
			<rt_info>
				<attribute name="decompression" version="0" />
			</rt_info>
			<input>
				<port id="0" precision="FP16">
					<dim>1</dim>
					<dim>1</dim>
					<dim>1</dim>
				</port>
			</input>
			<output>
				<port id="1" precision="FP32">
					<dim>1</dim>
					<dim>1</dim>
					<dim>1</dim>
				</port>
			</output>
		</layer>
		<layer id="301" name="394" type="Multiply" version="opset1">
			<data auto_broadcast="numpy" />
			<input>
				<port id="0" precision="FP32">
					<dim>1</dim>
					<dim>4420</dim>
					<dim>2</dim>
				</port>
				<port id="1" precision="FP32">
					<dim>1</dim>
					<dim>1</dim>
					<dim>1</dim>
				</port>
			</input>
			<output>
				<port id="2" precision="FP32" names="394,399">
					<dim>1</dim>
					<dim>4420</dim>
					<dim>2</dim>
				</port>
			</output>
		</layer>
		<layer id="302" name="395" type="Subtract" version="opset1">
			<data auto_broadcast="numpy" />
			<input>
				<port id="0" precision="FP32">
					<dim>1</dim>
					<dim>4420</dim>
					<dim>2</dim>
				</port>
				<port id="1" precision="FP32">
					<dim>1</dim>
					<dim>4420</dim>
					<dim>2</dim>
				</port>
			</input>
			<output>
				<port id="2" precision="FP32" names="395">
					<dim>1</dim>
					<dim>4420</dim>
					<dim>2</dim>
				</port>
			</output>
		</layer>
		<layer id="303" name="400" type="Add" version="opset1">
			<data auto_broadcast="numpy" />
			<input>
				<port id="0" precision="FP32">
					<dim>1</dim>
					<dim>4420</dim>
					<dim>2</dim>
				</port>
				<port id="1" precision="FP32">
					<dim>1</dim>
					<dim>4420</dim>
					<dim>2</dim>
				</port>
			</input>
			<output>
				<port id="2" precision="FP32" names="400">
					<dim>1</dim>
					<dim>4420</dim>
					<dim>2</dim>
				</port>
			</output>
		</layer>
		<layer id="304" name="boxes" type="Concat" version="opset1">
			<data axis="2" />
			<input>
				<port id="0" precision="FP32">
					<dim>1</dim>
					<dim>4420</dim>
					<dim>2</dim>
				</port>
				<port id="1" precision="FP32">
					<dim>1</dim>
					<dim>4420</dim>
					<dim>2</dim>
				</port>
			</input>
			<output>
				<port id="2" precision="FP32" names="boxes">
					<dim>1</dim>
					<dim>4420</dim>
					<dim>4</dim>
				</port>
			</output>
		</layer>
		<layer id="306" name="Reshape_575_compressed" type="Const" version="opset1">
			<data element_type="f16" shape="64, 1, 1, 3, 3" offset="528488" size="1152" />
			<output>
				<port id="0" precision="FP16">
					<dim>64</dim>
					<dim>1</dim>
					<dim>1</dim>
					<dim>3</dim>
					<dim>3</dim>
				</port>
			</output>
		</layer>
		<layer id="307" name="Reshape_575" type="Convert" version="opset1">
			<data destination_type="f32" />
			<rt_info>
				<attribute name="decompression" version="0" />
			</rt_info>
			<input>
				<port id="0" precision="FP16">
					<dim>64</dim>
					<dim>1</dim>
					<dim>1</dim>
					<dim>3</dim>
					<dim>3</dim>
				</port>
			</input>
			<output>
				<port id="1" precision="FP32">
					<dim>64</dim>
					<dim>1</dim>
					<dim>1</dim>
					<dim>3</dim>
					<dim>3</dim>
				</port>
			</output>
		</layer>
		<layer id="308" name="230/WithoutBiases" type="GroupConvolution" version="opset1">
			<data strides="1, 1" pads_begin="1, 1" pads_end="1, 1" dilations="1, 1" auto_pad="explicit" />
			<input>
				<port id="0" precision="FP32">
					<dim>1</dim>
					<dim>64</dim>
					<dim>30</dim>
					<dim>40</dim>
				</port>
				<port id="1" precision="FP32">
					<dim>64</dim>
					<dim>1</dim>
					<dim>1</dim>
					<dim>3</dim>
					<dim>3</dim>
				</port>
			</input>
			<output>
				<port id="2" precision="FP32">
					<dim>1</dim>
					<dim>64</dim>
					<dim>30</dim>
					<dim>40</dim>
				</port>
			</output>
		</layer>
		<layer id="309" name="Reshape_625_compressed" type="Const" version="opset1">
			<data element_type="f16" shape="1, 64, 1, 1" offset="529640" size="128" />
			<output>
				<port id="0" precision="FP16">
					<dim>1</dim>
					<dim>64</dim>
					<dim>1</dim>
					<dim>1</dim>
				</port>
			</output>
		</layer>
		<layer id="310" name="Reshape_625" type="Convert" version="opset1">
			<data destination_type="f32" />
			<rt_info>
				<attribute name="decompression" version="0" />
			</rt_info>
			<input>
				<port id="0" precision="FP16">
					<dim>1</dim>
					<dim>64</dim>
					<dim>1</dim>
					<dim>1</dim>
				</port>
			</input>
			<output>
				<port id="1" precision="FP32">
					<dim>1</dim>
					<dim>64</dim>
					<dim>1</dim>
					<dim>1</dim>
				</port>
			</output>
		</layer>
		<layer id="311" name="230" type="Add" version="opset1">
			<data auto_broadcast="numpy" />
			<input>
				<port id="0" precision="FP32">
					<dim>1</dim>
					<dim>64</dim>
					<dim>30</dim>
					<dim>40</dim>
				</port>
				<port id="1" precision="FP32">
					<dim>1</dim>
					<dim>64</dim>
					<dim>1</dim>
					<dim>1</dim>
				</port>
			</input>
			<output>
				<port id="2" precision="FP32" names="230">
					<dim>1</dim>
					<dim>64</dim>
					<dim>30</dim>
					<dim>40</dim>
				</port>
			</output>
		</layer>
		<layer id="312" name="231" type="ReLU" version="opset1">
			<input>
				<port id="0" precision="FP32">
					<dim>1</dim>
					<dim>64</dim>
					<dim>30</dim>
					<dim>40</dim>
				</port>
			</input>
			<output>
				<port id="1" precision="FP32" names="231">
					<dim>1</dim>
					<dim>64</dim>
					<dim>30</dim>
					<dim>40</dim>
				</port>
			</output>
		</layer>
		<layer id="313" name="classification_headers.0.2.weight_compressed" type="Const" version="opset1">
			<data element_type="f16" shape="6, 64, 1, 1" offset="529768" size="768" />
			<output>
				<port id="0" precision="FP16">
					<dim>6</dim>
					<dim>64</dim>
					<dim>1</dim>
					<dim>1</dim>
				</port>
			</output>
		</layer>
		<layer id="314" name="classification_headers.0.2.weight" type="Convert" version="opset1">
			<data destination_type="f32" />
			<rt_info>
				<attribute name="decompression" version="0" />
			</rt_info>
			<input>
				<port id="0" precision="FP16">
					<dim>6</dim>
					<dim>64</dim>
					<dim>1</dim>
					<dim>1</dim>
				</port>
			</input>
			<output>
				<port id="1" precision="FP32" names="classification_headers.0.2.weight">
					<dim>6</dim>
					<dim>64</dim>
					<dim>1</dim>
					<dim>1</dim>
				</port>
			</output>
		</layer>
		<layer id="315" name="232/WithoutBiases" type="Convolution" version="opset1">
			<data strides="1, 1" dilations="1, 1" pads_begin="0, 0" pads_end="0, 0" auto_pad="explicit" />
			<input>
				<port id="0" precision="FP32">
					<dim>1</dim>
					<dim>64</dim>
					<dim>30</dim>
					<dim>40</dim>
				</port>
				<port id="1" precision="FP32">
					<dim>6</dim>
					<dim>64</dim>
					<dim>1</dim>
					<dim>1</dim>
				</port>
			</input>
			<output>
				<port id="2" precision="FP32">
					<dim>1</dim>
					<dim>6</dim>
					<dim>30</dim>
					<dim>40</dim>
				</port>
			</output>
		</layer>
		<layer id="316" name="Reshape_639_compressed" type="Const" version="opset1">
			<data element_type="f16" shape="1, 6, 1, 1" offset="530536" size="12" />
			<output>
				<port id="0" precision="FP16">
					<dim>1</dim>
					<dim>6</dim>
					<dim>1</dim>
					<dim>1</dim>
				</port>
			</output>
		</layer>
		<layer id="317" name="Reshape_639" type="Convert" version="opset1">
			<data destination_type="f32" />
			<rt_info>
				<attribute name="decompression" version="0" />
			</rt_info>
			<input>
				<port id="0" precision="FP16">
					<dim>1</dim>
					<dim>6</dim>
					<dim>1</dim>
					<dim>1</dim>
				</port>
			</input>
			<output>
				<port id="1" precision="FP32">
					<dim>1</dim>
					<dim>6</dim>
					<dim>1</dim>
					<dim>1</dim>
				</port>
			</output>
		</layer>
		<layer id="318" name="232" type="Add" version="opset1">
			<data auto_broadcast="numpy" />
			<input>
				<port id="0" precision="FP32">
					<dim>1</dim>
					<dim>6</dim>
					<dim>30</dim>
					<dim>40</dim>
				</port>
				<port id="1" precision="FP32">
					<dim>1</dim>
					<dim>6</dim>
					<dim>1</dim>
					<dim>1</dim>
				</port>
			</input>
			<output>
				<port id="2" precision="FP32" names="232">
					<dim>1</dim>
					<dim>6</dim>
					<dim>30</dim>
					<dim>40</dim>
				</port>
			</output>
		</layer>
		<layer id="319" name="Constant_641" type="Const" version="opset1">
			<data element_type="i64" shape="4" offset="44324" size="32" />
			<output>
				<port id="0" precision="I64">
					<dim>4</dim>
				</port>
			</output>
		</layer>
		<layer id="320" name="233" type="Transpose" version="opset1">
			<input>
				<port id="0" precision="FP32">
					<dim>1</dim>
					<dim>6</dim>
					<dim>30</dim>
					<dim>40</dim>
				</port>
				<port id="1" precision="I64">
					<dim>4</dim>
				</port>
			</input>
			<output>
				<port id="2" precision="FP32" names="233">
					<dim>1</dim>
					<dim>30</dim>
					<dim>40</dim>
					<dim>6</dim>
				</port>
			</output>
		</layer>
		<layer id="321" name="242" type="Const" version="opset1">
			<data element_type="i64" shape="3" offset="530548" size="24" />
			<rt_info>
				<attribute name="precise" version="0" />
			</rt_info>
			<output>
				<port id="0" precision="I64">
					<dim>3</dim>
				</port>
			</output>
		</layer>
		<layer id="322" name="243" type="Reshape" version="opset1">
			<data special_zero="true" />
			<input>
				<port id="0" precision="FP32">
					<dim>1</dim>
					<dim>30</dim>
					<dim>40</dim>
					<dim>6</dim>
				</port>
				<port id="1" precision="I64">
					<dim>3</dim>
				</port>
			</input>
			<output>
				<port id="2" precision="FP32" names="243">
					<dim>1</dim>
					<dim>3600</dim>
					<dim>2</dim>
				</port>
			</output>
		</layer>
		<layer id="323" name="Reshape_915_compressed" type="Const" version="opset1">
			<data element_type="f16" shape="128, 1, 1, 3, 3" offset="530572" size="2304" />
			<output>
				<port id="0" precision="FP16">
					<dim>128</dim>
					<dim>1</dim>
					<dim>1</dim>
					<dim>3</dim>
					<dim>3</dim>
				</port>
			</output>
		</layer>
		<layer id="324" name="Reshape_915" type="Convert" version="opset1">
			<data destination_type="f32" />
			<rt_info>
				<attribute name="decompression" version="0" />
			</rt_info>
			<input>
				<port id="0" precision="FP16">
					<dim>128</dim>
					<dim>1</dim>
					<dim>1</dim>
					<dim>3</dim>
					<dim>3</dim>
				</port>
			</input>
			<output>
				<port id="1" precision="FP32">
					<dim>128</dim>
					<dim>1</dim>
					<dim>1</dim>
					<dim>3</dim>
					<dim>3</dim>
				</port>
			</output>
		</layer>
		<layer id="325" name="276/WithoutBiases" type="GroupConvolution" version="opset1">
			<data strides="1, 1" pads_begin="1, 1" pads_end="1, 1" dilations="1, 1" auto_pad="explicit" />
			<input>
				<port id="0" precision="FP32">
					<dim>1</dim>
					<dim>128</dim>
					<dim>15</dim>
					<dim>20</dim>
				</port>
				<port id="1" precision="FP32">
					<dim>128</dim>
					<dim>1</dim>
					<dim>1</dim>
					<dim>3</dim>
					<dim>3</dim>
				</port>
			</input>
			<output>
				<port id="2" precision="FP32">
					<dim>1</dim>
					<dim>128</dim>
					<dim>15</dim>
					<dim>20</dim>
				</port>
			</output>
		</layer>
		<layer id="326" name="Reshape_965_compressed" type="Const" version="opset1">
			<data element_type="f16" shape="1, 128, 1, 1" offset="532876" size="256" />
			<output>
				<port id="0" precision="FP16">
					<dim>1</dim>
					<dim>128</dim>
					<dim>1</dim>
					<dim>1</dim>
				</port>
			</output>
		</layer>
		<layer id="327" name="Reshape_965" type="Convert" version="opset1">
			<data destination_type="f32" />
			<rt_info>
				<attribute name="decompression" version="0" />
			</rt_info>
			<input>
				<port id="0" precision="FP16">
					<dim>1</dim>
					<dim>128</dim>
					<dim>1</dim>
					<dim>1</dim>
				</port>
			</input>
			<output>
				<port id="1" precision="FP32">
					<dim>1</dim>
					<dim>128</dim>
					<dim>1</dim>
					<dim>1</dim>
				</port>
			</output>
		</layer>
		<layer id="328" name="276" type="Add" version="opset1">
			<data auto_broadcast="numpy" />
			<input>
				<port id="0" precision="FP32">
					<dim>1</dim>
					<dim>128</dim>
					<dim>15</dim>
					<dim>20</dim>
				</port>
				<port id="1" precision="FP32">
					<dim>1</dim>
					<dim>128</dim>
					<dim>1</dim>
					<dim>1</dim>
				</port>
			</input>
			<output>
				<port id="2" precision="FP32" names="276">
					<dim>1</dim>
					<dim>128</dim>
					<dim>15</dim>
					<dim>20</dim>
				</port>
			</output>
		</layer>
		<layer id="329" name="277" type="ReLU" version="opset1">
			<input>
				<port id="0" precision="FP32">
					<dim>1</dim>
					<dim>128</dim>
					<dim>15</dim>
					<dim>20</dim>
				</port>
			</input>
			<output>
				<port id="1" precision="FP32" names="277">
					<dim>1</dim>
					<dim>128</dim>
					<dim>15</dim>
					<dim>20</dim>
				</port>
			</output>
		</layer>
		<layer id="330" name="classification_headers.1.2.weight_compressed" type="Const" version="opset1">
			<data element_type="f16" shape="4, 128, 1, 1" offset="533132" size="1024" />
			<output>
				<port id="0" precision="FP16">
					<dim>4</dim>
					<dim>128</dim>
					<dim>1</dim>
					<dim>1</dim>
				</port>
			</output>
		</layer>
		<layer id="331" name="classification_headers.1.2.weight" type="Convert" version="opset1">
			<data destination_type="f32" />
			<rt_info>
				<attribute name="decompression" version="0" />
			</rt_info>
			<input>
				<port id="0" precision="FP16">
					<dim>4</dim>
					<dim>128</dim>
					<dim>1</dim>
					<dim>1</dim>
				</port>
			</input>
			<output>
				<port id="1" precision="FP32" names="classification_headers.1.2.weight">
					<dim>4</dim>
					<dim>128</dim>
					<dim>1</dim>
					<dim>1</dim>
				</port>
			</output>
		</layer>
		<layer id="332" name="278/WithoutBiases" type="Convolution" version="opset1">
			<data strides="1, 1" dilations="1, 1" pads_begin="0, 0" pads_end="0, 0" auto_pad="explicit" />
			<input>
				<port id="0" precision="FP32">
					<dim>1</dim>
					<dim>128</dim>
					<dim>15</dim>
					<dim>20</dim>
				</port>
				<port id="1" precision="FP32">
					<dim>4</dim>
					<dim>128</dim>
					<dim>1</dim>
					<dim>1</dim>
				</port>
			</input>
			<output>
				<port id="2" precision="FP32">
					<dim>1</dim>
					<dim>4</dim>
					<dim>15</dim>
					<dim>20</dim>
				</port>
			</output>
		</layer>
		<layer id="333" name="Reshape_979_compressed" type="Const" version="opset1">
			<data element_type="f16" shape="1, 4, 1, 1" offset="534156" size="8" />
			<output>
				<port id="0" precision="FP16">
					<dim>1</dim>
					<dim>4</dim>
					<dim>1</dim>
					<dim>1</dim>
				</port>
			</output>
		</layer>
		<layer id="334" name="Reshape_979" type="Convert" version="opset1">
			<data destination_type="f32" />
			<rt_info>
				<attribute name="decompression" version="0" />
			</rt_info>
			<input>
				<port id="0" precision="FP16">
					<dim>1</dim>
					<dim>4</dim>
					<dim>1</dim>
					<dim>1</dim>
				</port>
			</input>
			<output>
				<port id="1" precision="FP32">
					<dim>1</dim>
					<dim>4</dim>
					<dim>1</dim>
					<dim>1</dim>
				</port>
			</output>
		</layer>
		<layer id="335" name="278" type="Add" version="opset1">
			<data auto_broadcast="numpy" />
			<input>
				<port id="0" precision="FP32">
					<dim>1</dim>
					<dim>4</dim>
					<dim>15</dim>
					<dim>20</dim>
				</port>
				<port id="1" precision="FP32">
					<dim>1</dim>
					<dim>4</dim>
					<dim>1</dim>
					<dim>1</dim>
				</port>
			</input>
			<output>
				<port id="2" precision="FP32" names="278">
					<dim>1</dim>
					<dim>4</dim>
					<dim>15</dim>
					<dim>20</dim>
				</port>
			</output>
		</layer>
		<layer id="336" name="Constant_981" type="Const" version="opset1">
			<data element_type="i64" shape="4" offset="44324" size="32" />
			<output>
				<port id="0" precision="I64">
					<dim>4</dim>
				</port>
			</output>
		</layer>
		<layer id="337" name="279" type="Transpose" version="opset1">
			<input>
				<port id="0" precision="FP32">
					<dim>1</dim>
					<dim>4</dim>
					<dim>15</dim>
					<dim>20</dim>
				</port>
				<port id="1" precision="I64">
					<dim>4</dim>
				</port>
			</input>
			<output>
				<port id="2" precision="FP32" names="279">
					<dim>1</dim>
					<dim>15</dim>
					<dim>20</dim>
					<dim>4</dim>
				</port>
			</output>
		</layer>
		<layer id="338" name="288" type="Const" version="opset1">
			<data element_type="i64" shape="3" offset="530548" size="24" />
			<rt_info>
				<attribute name="precise" version="0" />
			</rt_info>
			<output>
				<port id="0" precision="I64">
					<dim>3</dim>
				</port>
			</output>
		</layer>
		<layer id="339" name="289" type="Reshape" version="opset1">
			<data special_zero="true" />
			<input>
				<port id="0" precision="FP32">
					<dim>1</dim>
					<dim>15</dim>
					<dim>20</dim>
					<dim>4</dim>
				</port>
				<port id="1" precision="I64">
					<dim>3</dim>
				</port>
			</input>
			<output>
				<port id="2" precision="FP32" names="289">
					<dim>1</dim>
					<dim>600</dim>
					<dim>2</dim>
				</port>
			</output>
		</layer>
		<layer id="340" name="Reshape_1201_compressed" type="Const" version="opset1">
			<data element_type="f16" shape="256, 1, 1, 3, 3" offset="534164" size="4608" />
			<output>
				<port id="0" precision="FP16">
					<dim>256</dim>
					<dim>1</dim>
					<dim>1</dim>
					<dim>3</dim>
					<dim>3</dim>
				</port>
			</output>
		</layer>
		<layer id="341" name="Reshape_1201" type="Convert" version="opset1">
			<data destination_type="f32" />
			<rt_info>
				<attribute name="decompression" version="0" />
			</rt_info>
			<input>
				<port id="0" precision="FP16">
					<dim>256</dim>
					<dim>1</dim>
					<dim>1</dim>
					<dim>3</dim>
					<dim>3</dim>
				</port>
			</input>
			<output>
				<port id="1" precision="FP32">
					<dim>256</dim>
					<dim>1</dim>
					<dim>1</dim>
					<dim>3</dim>
					<dim>3</dim>
				</port>
			</output>
		</layer>
		<layer id="342" name="316/WithoutBiases" type="GroupConvolution" version="opset1">
			<data strides="1, 1" pads_begin="1, 1" pads_end="1, 1" dilations="1, 1" auto_pad="explicit" />
			<input>
				<port id="0" precision="FP32">
					<dim>1</dim>
					<dim>256</dim>
					<dim>8</dim>
					<dim>10</dim>
				</port>
				<port id="1" precision="FP32">
					<dim>256</dim>
					<dim>1</dim>
					<dim>1</dim>
					<dim>3</dim>
					<dim>3</dim>
				</port>
			</input>
			<output>
				<port id="2" precision="FP32">
					<dim>1</dim>
					<dim>256</dim>
					<dim>8</dim>
					<dim>10</dim>
				</port>
			</output>
		</layer>
		<layer id="343" name="Reshape_1251_compressed" type="Const" version="opset1">
			<data element_type="f16" shape="1, 256, 1, 1" offset="538772" size="512" />
			<output>
				<port id="0" precision="FP16">
					<dim>1</dim>
					<dim>256</dim>
					<dim>1</dim>
					<dim>1</dim>
				</port>
			</output>
		</layer>
		<layer id="344" name="Reshape_1251" type="Convert" version="opset1">
			<data destination_type="f32" />
			<rt_info>
				<attribute name="decompression" version="0" />
			</rt_info>
			<input>
				<port id="0" precision="FP16">
					<dim>1</dim>
					<dim>256</dim>
					<dim>1</dim>
					<dim>1</dim>
				</port>
			</input>
			<output>
				<port id="1" precision="FP32">
					<dim>1</dim>
					<dim>256</dim>
					<dim>1</dim>
					<dim>1</dim>
				</port>
			</output>
		</layer>
		<layer id="345" name="316" type="Add" version="opset1">
			<data auto_broadcast="numpy" />
			<input>
				<port id="0" precision="FP32">
					<dim>1</dim>
					<dim>256</dim>
					<dim>8</dim>
					<dim>10</dim>
				</port>
				<port id="1" precision="FP32">
					<dim>1</dim>
					<dim>256</dim>
					<dim>1</dim>
					<dim>1</dim>
				</port>
			</input>
			<output>
				<port id="2" precision="FP32" names="316">
					<dim>1</dim>
					<dim>256</dim>
					<dim>8</dim>
					<dim>10</dim>
				</port>
			</output>
		</layer>
		<layer id="346" name="317" type="ReLU" version="opset1">
			<input>
				<port id="0" precision="FP32">
					<dim>1</dim>
					<dim>256</dim>
					<dim>8</dim>
					<dim>10</dim>
				</port>
			</input>
			<output>
				<port id="1" precision="FP32" names="317">
					<dim>1</dim>
					<dim>256</dim>
					<dim>8</dim>
					<dim>10</dim>
				</port>
			</output>
		</layer>
		<layer id="347" name="classification_headers.2.2.weight_compressed" type="Const" version="opset1">
			<data element_type="f16" shape="4, 256, 1, 1" offset="539284" size="2048" />
			<output>
				<port id="0" precision="FP16">
					<dim>4</dim>
					<dim>256</dim>
					<dim>1</dim>
					<dim>1</dim>
				</port>
			</output>
		</layer>
		<layer id="348" name="classification_headers.2.2.weight" type="Convert" version="opset1">
			<data destination_type="f32" />
			<rt_info>
				<attribute name="decompression" version="0" />
			</rt_info>
			<input>
				<port id="0" precision="FP16">
					<dim>4</dim>
					<dim>256</dim>
					<dim>1</dim>
					<dim>1</dim>
				</port>
			</input>
			<output>
				<port id="1" precision="FP32" names="classification_headers.2.2.weight">
					<dim>4</dim>
					<dim>256</dim>
					<dim>1</dim>
					<dim>1</dim>
				</port>
			</output>
		</layer>
		<layer id="349" name="318/WithoutBiases" type="Convolution" version="opset1">
			<data strides="1, 1" dilations="1, 1" pads_begin="0, 0" pads_end="0, 0" auto_pad="explicit" />
			<input>
				<port id="0" precision="FP32">
					<dim>1</dim>
					<dim>256</dim>
					<dim>8</dim>
					<dim>10</dim>
				</port>
				<port id="1" precision="FP32">
					<dim>4</dim>
					<dim>256</dim>
					<dim>1</dim>
					<dim>1</dim>
				</port>
			</input>
			<output>
				<port id="2" precision="FP32">
					<dim>1</dim>
					<dim>4</dim>
					<dim>8</dim>
					<dim>10</dim>
				</port>
			</output>
		</layer>
		<layer id="350" name="Reshape_1265_compressed" type="Const" version="opset1">
			<data element_type="f16" shape="1, 4, 1, 1" offset="541332" size="8" />
			<output>
				<port id="0" precision="FP16">
					<dim>1</dim>
					<dim>4</dim>
					<dim>1</dim>
					<dim>1</dim>
				</port>
			</output>
		</layer>
		<layer id="351" name="Reshape_1265" type="Convert" version="opset1">
			<data destination_type="f32" />
			<rt_info>
				<attribute name="decompression" version="0" />
			</rt_info>
			<input>
				<port id="0" precision="FP16">
					<dim>1</dim>
					<dim>4</dim>
					<dim>1</dim>
					<dim>1</dim>
				</port>
			</input>
			<output>
				<port id="1" precision="FP32">
					<dim>1</dim>
					<dim>4</dim>
					<dim>1</dim>
					<dim>1</dim>
				</port>
			</output>
		</layer>
		<layer id="352" name="318" type="Add" version="opset1">
			<data auto_broadcast="numpy" />
			<input>
				<port id="0" precision="FP32">
					<dim>1</dim>
					<dim>4</dim>
					<dim>8</dim>
					<dim>10</dim>
				</port>
				<port id="1" precision="FP32">
					<dim>1</dim>
					<dim>4</dim>
					<dim>1</dim>
					<dim>1</dim>
				</port>
			</input>
			<output>
				<port id="2" precision="FP32" names="318">
					<dim>1</dim>
					<dim>4</dim>
					<dim>8</dim>
					<dim>10</dim>
				</port>
			</output>
		</layer>
		<layer id="353" name="Constant_1267" type="Const" version="opset1">
			<data element_type="i64" shape="4" offset="44324" size="32" />
			<output>
				<port id="0" precision="I64">
					<dim>4</dim>
				</port>
			</output>
		</layer>
		<layer id="354" name="319" type="Transpose" version="opset1">
			<input>
				<port id="0" precision="FP32">
					<dim>1</dim>
					<dim>4</dim>
					<dim>8</dim>
					<dim>10</dim>
				</port>
				<port id="1" precision="I64">
					<dim>4</dim>
				</port>
			</input>
			<output>
				<port id="2" precision="FP32" names="319">
					<dim>1</dim>
					<dim>8</dim>
					<dim>10</dim>
					<dim>4</dim>
				</port>
			</output>
		</layer>
		<layer id="355" name="328" type="Const" version="opset1">
			<data element_type="i64" shape="3" offset="530548" size="24" />
			<rt_info>
				<attribute name="precise" version="0" />
			</rt_info>
			<output>
				<port id="0" precision="I64">
					<dim>3</dim>
				</port>
			</output>
		</layer>
		<layer id="356" name="329" type="Reshape" version="opset1">
			<data special_zero="true" />
			<input>
				<port id="0" precision="FP32">
					<dim>1</dim>
					<dim>8</dim>
					<dim>10</dim>
					<dim>4</dim>
				</port>
				<port id="1" precision="I64">
					<dim>3</dim>
				</port>
			</input>
			<output>
				<port id="2" precision="FP32" names="329">
					<dim>1</dim>
					<dim>160</dim>
					<dim>2</dim>
				</port>
			</output>
		</layer>
		<layer id="357" name="classification_headers.3.weight_compressed" type="Const" version="opset1">
			<data element_type="f16" shape="6, 256, 3, 3" offset="541340" size="27648" />
			<output>
				<port id="0" precision="FP16">
					<dim>6</dim>
					<dim>256</dim>
					<dim>3</dim>
					<dim>3</dim>
				</port>
			</output>
		</layer>
		<layer id="358" name="classification_headers.3.weight" type="Convert" version="opset1">
			<data destination_type="f32" />
			<rt_info>
				<attribute name="decompression" version="0" />
			</rt_info>
			<input>
				<port id="0" precision="FP16">
					<dim>6</dim>
					<dim>256</dim>
					<dim>3</dim>
					<dim>3</dim>
				</port>
			</input>
			<output>
				<port id="1" precision="FP32" names="classification_headers.3.weight">
					<dim>6</dim>
					<dim>256</dim>
					<dim>3</dim>
					<dim>3</dim>
				</port>
			</output>
		</layer>
		<layer id="359" name="350/WithoutBiases" type="Convolution" version="opset1">
			<data strides="1, 1" dilations="1, 1" pads_begin="1, 1" pads_end="1, 1" auto_pad="explicit" />
			<input>
				<port id="0" precision="FP32">
					<dim>1</dim>
					<dim>256</dim>
					<dim>4</dim>
					<dim>5</dim>
				</port>
				<port id="1" precision="FP32">
					<dim>6</dim>
					<dim>256</dim>
					<dim>3</dim>
					<dim>3</dim>
				</port>
			</input>
			<output>
				<port id="2" precision="FP32">
					<dim>1</dim>
					<dim>6</dim>
					<dim>4</dim>
					<dim>5</dim>
				</port>
			</output>
		</layer>
		<layer id="360" name="Reshape_1471_compressed" type="Const" version="opset1">
			<data element_type="f16" shape="1, 6, 1, 1" offset="568988" size="12" />
			<output>
				<port id="0" precision="FP16">
					<dim>1</dim>
					<dim>6</dim>
					<dim>1</dim>
					<dim>1</dim>
				</port>
			</output>
		</layer>
		<layer id="361" name="Reshape_1471" type="Convert" version="opset1">
			<data destination_type="f32" />
			<rt_info>
				<attribute name="decompression" version="0" />
			</rt_info>
			<input>
				<port id="0" precision="FP16">
					<dim>1</dim>
					<dim>6</dim>
					<dim>1</dim>
					<dim>1</dim>
				</port>
			</input>
			<output>
				<port id="1" precision="FP32">
					<dim>1</dim>
					<dim>6</dim>
					<dim>1</dim>
					<dim>1</dim>
				</port>
			</output>
		</layer>
		<layer id="362" name="350" type="Add" version="opset1">
			<data auto_broadcast="numpy" />
			<input>
				<port id="0" precision="FP32">
					<dim>1</dim>
					<dim>6</dim>
					<dim>4</dim>
					<dim>5</dim>
				</port>
				<port id="1" precision="FP32">
					<dim>1</dim>
					<dim>6</dim>
					<dim>1</dim>
					<dim>1</dim>
				</port>
			</input>
			<output>
				<port id="2" precision="FP32" names="350">
					<dim>1</dim>
					<dim>6</dim>
					<dim>4</dim>
					<dim>5</dim>
				</port>
			</output>
		</layer>
		<layer id="363" name="Constant_1473" type="Const" version="opset1">
			<data element_type="i64" shape="4" offset="44324" size="32" />
			<output>
				<port id="0" precision="I64">
					<dim>4</dim>
				</port>
			</output>
		</layer>
		<layer id="364" name="351" type="Transpose" version="opset1">
			<input>
				<port id="0" precision="FP32">
					<dim>1</dim>
					<dim>6</dim>
					<dim>4</dim>
					<dim>5</dim>
				</port>
				<port id="1" precision="I64">
					<dim>4</dim>
				</port>
			</input>
			<output>
				<port id="2" precision="FP32" names="351">
					<dim>1</dim>
					<dim>4</dim>
					<dim>5</dim>
					<dim>6</dim>
				</port>
			</output>
		</layer>
		<layer id="365" name="360" type="Const" version="opset1">
			<data element_type="i64" shape="3" offset="530548" size="24" />
			<rt_info>
				<attribute name="precise" version="0" />
			</rt_info>
			<output>
				<port id="0" precision="I64">
					<dim>3</dim>
				</port>
			</output>
		</layer>
		<layer id="366" name="361" type="Reshape" version="opset1">
			<data special_zero="true" />
			<input>
				<port id="0" precision="FP32">
					<dim>1</dim>
					<dim>4</dim>
					<dim>5</dim>
					<dim>6</dim>
				</port>
				<port id="1" precision="I64">
					<dim>3</dim>
				</port>
			</input>
			<output>
				<port id="2" precision="FP32" names="361">
					<dim>1</dim>
					<dim>60</dim>
					<dim>2</dim>
				</port>
			</output>
		</layer>
		<layer id="367" name="374" type="Concat" version="opset1">
			<data axis="1" />
			<input>
				<port id="0" precision="FP32">
					<dim>1</dim>
					<dim>3600</dim>
					<dim>2</dim>
				</port>
				<port id="1" precision="FP32">
					<dim>1</dim>
					<dim>600</dim>
					<dim>2</dim>
				</port>
				<port id="2" precision="FP32">
					<dim>1</dim>
					<dim>160</dim>
					<dim>2</dim>
				</port>
				<port id="3" precision="FP32">
					<dim>1</dim>
					<dim>60</dim>
					<dim>2</dim>
				</port>
			</input>
			<output>
				<port id="4" precision="FP32" names="374">
					<dim>1</dim>
					<dim>4420</dim>
					<dim>2</dim>
				</port>
			</output>
		</layer>
		<layer id="368" name="ShapeOf_1520" type="ShapeOf" version="opset3">
			<data output_type="i64" />
			<input>
				<port id="0" precision="FP32">
					<dim>1</dim>
					<dim>4420</dim>
					<dim>2</dim>
				</port>
			</input>
			<output>
				<port id="1" precision="I64">
					<dim>3</dim>
				</port>
			</output>
		</layer>
		<layer id="369" name="Constant_1523" type="Const" version="opset1">
			<data element_type="i64" shape="1" offset="475412" size="8" />
			<rt_info>
				<attribute name="precise" version="0" />
			</rt_info>
			<output>
				<port id="0" precision="I64">
					<dim>1</dim>
				</port>
			</output>
		</layer>
		<layer id="370" name="Constant_1522" type="Const" version="opset1">
			<data element_type="i64" shape="1" offset="475420" size="8" />
			<rt_info>
				<attribute name="precise" version="0" />
			</rt_info>
			<output>
				<port id="0" precision="I64">
					<dim>1</dim>
				</port>
			</output>
		</layer>
		<layer id="371" name="Constant_1524" type="Const" version="opset1">
			<data element_type="i64" shape="1" offset="475428" size="8" />
			<rt_info>
				<attribute name="precise" version="0" />
			</rt_info>
			<output>
				<port id="0" precision="I64">
					<dim>1</dim>
				</port>
			</output>
		</layer>
		<layer id="372" name="StridedSlice_1525" type="StridedSlice" version="opset1">
			<data begin_mask="0" end_mask="0" new_axis_mask="" shrink_axis_mask="" ellipsis_mask="" />
			<input>
				<port id="0" precision="I64">
					<dim>3</dim>
				</port>
				<port id="1" precision="I64">
					<dim>1</dim>
				</port>
				<port id="2" precision="I64">
					<dim>1</dim>
				</port>
				<port id="3" precision="I64">
					<dim>1</dim>
				</port>
			</input>
			<output>
				<port id="4" precision="I64">
					<dim>2</dim>
				</port>
			</output>
		</layer>
		<layer id="373" name="Constant_1526" type="Const" version="opset1">
			<data element_type="i64" shape="" offset="475412" size="8" />
			<rt_info>
				<attribute name="precise" version="0" />
			</rt_info>
			<output>
				<port id="0" precision="I64" />
			</output>
		</layer>
		<layer id="374" name="ReduceProd_1527" type="ReduceProd" version="opset1">
			<data keep_dims="true" />
			<input>
				<port id="0" precision="I64">
					<dim>2</dim>
				</port>
				<port id="1" precision="I64" />
			</input>
			<output>
				<port id="2" precision="I64">
					<dim>1</dim>
				</port>
			</output>
		</layer>
		<layer id="375" name="Constant_1528" type="Const" version="opset1">
			<data element_type="i64" shape="1" offset="569000" size="8" />
			<rt_info>
				<attribute name="precise" version="0" />
			</rt_info>
			<output>
				<port id="0" precision="I64">
					<dim>1</dim>
				</port>
			</output>
		</layer>
		<layer id="376" name="Concat_1529" type="Concat" version="opset1">
			<data axis="0" />
			<input>
				<port id="0" precision="I64">
					<dim>1</dim>
				</port>
				<port id="1" precision="I64">
					<dim>1</dim>
				</port>
			</input>
			<output>
				<port id="2" precision="I64">
					<dim>2</dim>
				</port>
			</output>
		</layer>
		<layer id="377" name="Reshape_1530" type="Reshape" version="opset1">
			<data special_zero="true" />
			<input>
				<port id="0" precision="FP32">
					<dim>1</dim>
					<dim>4420</dim>
					<dim>2</dim>
				</port>
				<port id="1" precision="I64">
					<dim>2</dim>
				</port>
			</input>
			<output>
				<port id="2" precision="FP32">
					<dim>4420</dim>
					<dim>2</dim>
				</port>
			</output>
		</layer>
		<layer id="378" name="Softmax_1550" type="SoftMax" version="opset8">
			<data axis="1" />
			<input>
				<port id="0" precision="FP32">
					<dim>4420</dim>
					<dim>2</dim>
				</port>
			</input>
			<output>
				<port id="1" precision="FP32">
					<dim>4420</dim>
					<dim>2</dim>
				</port>
			</output>
		</layer>
		<layer id="379" name="scores" type="Reshape" version="opset1">
			<data special_zero="false" />
			<input>
				<port id="0" precision="FP32">
					<dim>4420</dim>
					<dim>2</dim>
				</port>
				<port id="1" precision="I64">
					<dim>3</dim>
				</port>
			</input>
			<output>
				<port id="2" precision="FP32" names="scores">
					<dim>1</dim>
					<dim>4420</dim>
					<dim>2</dim>
				</port>
			</output>
		</layer>
		<layer id="380" name="scores/sink_port_0" type="Result" version="opset1">
			<input>
				<port id="0" precision="FP32">
					<dim>1</dim>
					<dim>4420</dim>
					<dim>2</dim>
				</port>
			</input>
		</layer>
		<layer id="305" name="boxes/sink_port_0" type="Result" version="opset1">
			<input>
				<port id="0" precision="FP32">
					<dim>1</dim>
					<dim>4420</dim>
					<dim>4</dim>
				</port>
			</input>
		</layer>
	</layers>
	<edges>
		<edge from-layer="0" from-port="0" to-layer="3" to-port="0" />
		<edge from-layer="1" from-port="0" to-layer="2" to-port="0" />
		<edge from-layer="2" from-port="1" to-layer="3" to-port="1" />
		<edge from-layer="3" from-port="2" to-layer="6" to-port="0" />
		<edge from-layer="4" from-port="0" to-layer="5" to-port="0" />
		<edge from-layer="5" from-port="1" to-layer="6" to-port="1" />
		<edge from-layer="6" from-port="2" to-layer="9" to-port="0" />
		<edge from-layer="7" from-port="0" to-layer="8" to-port="0" />
		<edge from-layer="8" from-port="1" to-layer="9" to-port="1" />
		<edge from-layer="9" from-port="2" to-layer="12" to-port="0" />
		<edge from-layer="10" from-port="0" to-layer="11" to-port="0" />
		<edge from-layer="11" from-port="1" to-layer="12" to-port="1" />
		<edge from-layer="12" from-port="2" to-layer="13" to-port="0" />
		<edge from-layer="13" from-port="1" to-layer="16" to-port="0" />
		<edge from-layer="14" from-port="0" to-layer="15" to-port="0" />
		<edge from-layer="15" from-port="1" to-layer="16" to-port="1" />
		<edge from-layer="16" from-port="2" to-layer="19" to-port="0" />
		<edge from-layer="17" from-port="0" to-layer="18" to-port="0" />
		<edge from-layer="18" from-port="1" to-layer="19" to-port="1" />
		<edge from-layer="19" from-port="2" to-layer="20" to-port="0" />
		<edge from-layer="20" from-port="1" to-layer="23" to-port="0" />
		<edge from-layer="21" from-port="0" to-layer="22" to-port="0" />
		<edge from-layer="22" from-port="1" to-layer="23" to-port="1" />
		<edge from-layer="23" from-port="2" to-layer="26" to-port="0" />
		<edge from-layer="24" from-port="0" to-layer="25" to-port="0" />
		<edge from-layer="25" from-port="1" to-layer="26" to-port="1" />
		<edge from-layer="26" from-port="2" to-layer="27" to-port="0" />
		<edge from-layer="27" from-port="1" to-layer="30" to-port="0" />
		<edge from-layer="28" from-port="0" to-layer="29" to-port="0" />
		<edge from-layer="29" from-port="1" to-layer="30" to-port="1" />
		<edge from-layer="30" from-port="2" to-layer="33" to-port="0" />
		<edge from-layer="31" from-port="0" to-layer="32" to-port="0" />
		<edge from-layer="32" from-port="1" to-layer="33" to-port="1" />
		<edge from-layer="33" from-port="2" to-layer="34" to-port="0" />
		<edge from-layer="34" from-port="1" to-layer="37" to-port="0" />
		<edge from-layer="35" from-port="0" to-layer="36" to-port="0" />
		<edge from-layer="36" from-port="1" to-layer="37" to-port="1" />
		<edge from-layer="37" from-port="2" to-layer="40" to-port="0" />
		<edge from-layer="38" from-port="0" to-layer="39" to-port="0" />
		<edge from-layer="39" from-port="1" to-layer="40" to-port="1" />
		<edge from-layer="40" from-port="2" to-layer="41" to-port="0" />
		<edge from-layer="41" from-port="1" to-layer="44" to-port="0" />
		<edge from-layer="42" from-port="0" to-layer="43" to-port="0" />
		<edge from-layer="43" from-port="1" to-layer="44" to-port="1" />
		<edge from-layer="44" from-port="2" to-layer="47" to-port="0" />
		<edge from-layer="45" from-port="0" to-layer="46" to-port="0" />
		<edge from-layer="46" from-port="1" to-layer="47" to-port="1" />
		<edge from-layer="47" from-port="2" to-layer="48" to-port="0" />
		<edge from-layer="48" from-port="1" to-layer="51" to-port="0" />
		<edge from-layer="49" from-port="0" to-layer="50" to-port="0" />
		<edge from-layer="50" from-port="1" to-layer="51" to-port="1" />
		<edge from-layer="51" from-port="2" to-layer="54" to-port="0" />
		<edge from-layer="52" from-port="0" to-layer="53" to-port="0" />
		<edge from-layer="53" from-port="1" to-layer="54" to-port="1" />
		<edge from-layer="54" from-port="2" to-layer="55" to-port="0" />
		<edge from-layer="55" from-port="1" to-layer="58" to-port="0" />
		<edge from-layer="56" from-port="0" to-layer="57" to-port="0" />
		<edge from-layer="57" from-port="1" to-layer="58" to-port="1" />
		<edge from-layer="58" from-port="2" to-layer="61" to-port="0" />
		<edge from-layer="59" from-port="0" to-layer="60" to-port="0" />
		<edge from-layer="60" from-port="1" to-layer="61" to-port="1" />
		<edge from-layer="61" from-port="2" to-layer="62" to-port="0" />
		<edge from-layer="62" from-port="1" to-layer="65" to-port="0" />
		<edge from-layer="63" from-port="0" to-layer="64" to-port="0" />
		<edge from-layer="64" from-port="1" to-layer="65" to-port="1" />
		<edge from-layer="65" from-port="2" to-layer="68" to-port="0" />
		<edge from-layer="66" from-port="0" to-layer="67" to-port="0" />
		<edge from-layer="67" from-port="1" to-layer="68" to-port="1" />
		<edge from-layer="68" from-port="2" to-layer="69" to-port="0" />
		<edge from-layer="69" from-port="1" to-layer="72" to-port="0" />
		<edge from-layer="70" from-port="0" to-layer="71" to-port="0" />
		<edge from-layer="71" from-port="1" to-layer="72" to-port="1" />
		<edge from-layer="72" from-port="2" to-layer="75" to-port="0" />
		<edge from-layer="73" from-port="0" to-layer="74" to-port="0" />
		<edge from-layer="74" from-port="1" to-layer="75" to-port="1" />
		<edge from-layer="75" from-port="2" to-layer="76" to-port="0" />
		<edge from-layer="76" from-port="1" to-layer="79" to-port="0" />
		<edge from-layer="77" from-port="0" to-layer="78" to-port="0" />
		<edge from-layer="78" from-port="1" to-layer="79" to-port="1" />
		<edge from-layer="79" from-port="2" to-layer="82" to-port="0" />
		<edge from-layer="80" from-port="0" to-layer="81" to-port="0" />
		<edge from-layer="81" from-port="1" to-layer="82" to-port="1" />
		<edge from-layer="82" from-port="2" to-layer="83" to-port="0" />
		<edge from-layer="83" from-port="1" to-layer="86" to-port="0" />
		<edge from-layer="84" from-port="0" to-layer="85" to-port="0" />
		<edge from-layer="85" from-port="1" to-layer="86" to-port="1" />
		<edge from-layer="86" from-port="2" to-layer="89" to-port="0" />
		<edge from-layer="87" from-port="0" to-layer="88" to-port="0" />
		<edge from-layer="88" from-port="1" to-layer="89" to-port="1" />
		<edge from-layer="89" from-port="2" to-layer="90" to-port="0" />
		<edge from-layer="90" from-port="1" to-layer="93" to-port="0" />
		<edge from-layer="91" from-port="0" to-layer="92" to-port="0" />
		<edge from-layer="92" from-port="1" to-layer="93" to-port="1" />
		<edge from-layer="93" from-port="2" to-layer="96" to-port="0" />
		<edge from-layer="94" from-port="0" to-layer="95" to-port="0" />
		<edge from-layer="95" from-port="1" to-layer="96" to-port="1" />
		<edge from-layer="96" from-port="2" to-layer="97" to-port="0" />
		<edge from-layer="97" from-port="1" to-layer="100" to-port="0" />
		<edge from-layer="98" from-port="0" to-layer="99" to-port="0" />
		<edge from-layer="99" from-port="1" to-layer="100" to-port="1" />
		<edge from-layer="100" from-port="2" to-layer="103" to-port="0" />
		<edge from-layer="101" from-port="0" to-layer="102" to-port="0" />
		<edge from-layer="102" from-port="1" to-layer="103" to-port="1" />
		<edge from-layer="103" from-port="2" to-layer="104" to-port="0" />
		<edge from-layer="104" from-port="1" to-layer="107" to-port="0" />
		<edge from-layer="105" from-port="0" to-layer="106" to-port="0" />
		<edge from-layer="106" from-port="1" to-layer="107" to-port="1" />
		<edge from-layer="107" from-port="2" to-layer="110" to-port="0" />
		<edge from-layer="108" from-port="0" to-layer="109" to-port="0" />
		<edge from-layer="109" from-port="1" to-layer="110" to-port="1" />
		<edge from-layer="110" from-port="2" to-layer="111" to-port="0" />
		<edge from-layer="111" from-port="1" to-layer="114" to-port="0" />
		<edge from-layer="111" from-port="1" to-layer="308" to-port="0" />
		<edge from-layer="111" from-port="1" to-layer="131" to-port="0" />
		<edge from-layer="112" from-port="0" to-layer="113" to-port="0" />
		<edge from-layer="113" from-port="1" to-layer="114" to-port="1" />
		<edge from-layer="114" from-port="2" to-layer="117" to-port="0" />
		<edge from-layer="115" from-port="0" to-layer="116" to-port="0" />
		<edge from-layer="116" from-port="1" to-layer="117" to-port="1" />
		<edge from-layer="117" from-port="2" to-layer="118" to-port="0" />
		<edge from-layer="118" from-port="1" to-layer="121" to-port="0" />
		<edge from-layer="119" from-port="0" to-layer="120" to-port="0" />
		<edge from-layer="120" from-port="1" to-layer="121" to-port="1" />
		<edge from-layer="121" from-port="2" to-layer="124" to-port="0" />
		<edge from-layer="122" from-port="0" to-layer="123" to-port="0" />
		<edge from-layer="123" from-port="1" to-layer="124" to-port="1" />
		<edge from-layer="124" from-port="2" to-layer="126" to-port="0" />
		<edge from-layer="125" from-port="0" to-layer="126" to-port="1" />
		<edge from-layer="126" from-port="2" to-layer="128" to-port="0" />
		<edge from-layer="127" from-port="0" to-layer="128" to-port="1" />
		<edge from-layer="128" from-port="2" to-layer="264" to-port="0" />
		<edge from-layer="129" from-port="0" to-layer="130" to-port="0" />
		<edge from-layer="130" from-port="1" to-layer="131" to-port="1" />
		<edge from-layer="131" from-port="2" to-layer="134" to-port="0" />
		<edge from-layer="132" from-port="0" to-layer="133" to-port="0" />
		<edge from-layer="133" from-port="1" to-layer="134" to-port="1" />
		<edge from-layer="134" from-port="2" to-layer="135" to-port="0" />
		<edge from-layer="135" from-port="1" to-layer="138" to-port="0" />
		<edge from-layer="136" from-port="0" to-layer="137" to-port="0" />
		<edge from-layer="137" from-port="1" to-layer="138" to-port="1" />
		<edge from-layer="138" from-port="2" to-layer="141" to-port="0" />
		<edge from-layer="139" from-port="0" to-layer="140" to-port="0" />
		<edge from-layer="140" from-port="1" to-layer="141" to-port="1" />
		<edge from-layer="141" from-port="2" to-layer="142" to-port="0" />
		<edge from-layer="142" from-port="1" to-layer="145" to-port="0" />
		<edge from-layer="143" from-port="0" to-layer="144" to-port="0" />
		<edge from-layer="144" from-port="1" to-layer="145" to-port="1" />
		<edge from-layer="145" from-port="2" to-layer="148" to-port="0" />
		<edge from-layer="146" from-port="0" to-layer="147" to-port="0" />
		<edge from-layer="147" from-port="1" to-layer="148" to-port="1" />
		<edge from-layer="148" from-port="2" to-layer="149" to-port="0" />
		<edge from-layer="149" from-port="1" to-layer="152" to-port="0" />
		<edge from-layer="150" from-port="0" to-layer="151" to-port="0" />
		<edge from-layer="151" from-port="1" to-layer="152" to-port="1" />
		<edge from-layer="152" from-port="2" to-layer="155" to-port="0" />
		<edge from-layer="153" from-port="0" to-layer="154" to-port="0" />
		<edge from-layer="154" from-port="1" to-layer="155" to-port="1" />
		<edge from-layer="155" from-port="2" to-layer="156" to-port="0" />
		<edge from-layer="156" from-port="1" to-layer="159" to-port="0" />
		<edge from-layer="157" from-port="0" to-layer="158" to-port="0" />
		<edge from-layer="158" from-port="1" to-layer="159" to-port="1" />
		<edge from-layer="159" from-port="2" to-layer="162" to-port="0" />
		<edge from-layer="160" from-port="0" to-layer="161" to-port="0" />
		<edge from-layer="161" from-port="1" to-layer="162" to-port="1" />
		<edge from-layer="162" from-port="2" to-layer="163" to-port="0" />
		<edge from-layer="163" from-port="1" to-layer="166" to-port="0" />
		<edge from-layer="164" from-port="0" to-layer="165" to-port="0" />
		<edge from-layer="165" from-port="1" to-layer="166" to-port="1" />
		<edge from-layer="166" from-port="2" to-layer="169" to-port="0" />
		<edge from-layer="167" from-port="0" to-layer="168" to-port="0" />
		<edge from-layer="168" from-port="1" to-layer="169" to-port="1" />
		<edge from-layer="169" from-port="2" to-layer="170" to-port="0" />
		<edge from-layer="170" from-port="1" to-layer="173" to-port="0" />
		<edge from-layer="170" from-port="1" to-layer="325" to-port="0" />
		<edge from-layer="170" from-port="1" to-layer="190" to-port="0" />
		<edge from-layer="171" from-port="0" to-layer="172" to-port="0" />
		<edge from-layer="172" from-port="1" to-layer="173" to-port="1" />
		<edge from-layer="173" from-port="2" to-layer="176" to-port="0" />
		<edge from-layer="174" from-port="0" to-layer="175" to-port="0" />
		<edge from-layer="175" from-port="1" to-layer="176" to-port="1" />
		<edge from-layer="176" from-port="2" to-layer="177" to-port="0" />
		<edge from-layer="177" from-port="1" to-layer="180" to-port="0" />
		<edge from-layer="178" from-port="0" to-layer="179" to-port="0" />
		<edge from-layer="179" from-port="1" to-layer="180" to-port="1" />
		<edge from-layer="180" from-port="2" to-layer="183" to-port="0" />
		<edge from-layer="181" from-port="0" to-layer="182" to-port="0" />
		<edge from-layer="182" from-port="1" to-layer="183" to-port="1" />
		<edge from-layer="183" from-port="2" to-layer="185" to-port="0" />
		<edge from-layer="184" from-port="0" to-layer="185" to-port="1" />
		<edge from-layer="185" from-port="2" to-layer="187" to-port="0" />
		<edge from-layer="186" from-port="0" to-layer="187" to-port="1" />
		<edge from-layer="187" from-port="2" to-layer="264" to-port="1" />
		<edge from-layer="188" from-port="0" to-layer="189" to-port="0" />
		<edge from-layer="189" from-port="1" to-layer="190" to-port="1" />
		<edge from-layer="190" from-port="2" to-layer="193" to-port="0" />
		<edge from-layer="191" from-port="0" to-layer="192" to-port="0" />
		<edge from-layer="192" from-port="1" to-layer="193" to-port="1" />
		<edge from-layer="193" from-port="2" to-layer="194" to-port="0" />
		<edge from-layer="194" from-port="1" to-layer="197" to-port="0" />
		<edge from-layer="195" from-port="0" to-layer="196" to-port="0" />
		<edge from-layer="196" from-port="1" to-layer="197" to-port="1" />
		<edge from-layer="197" from-port="2" to-layer="200" to-port="0" />
		<edge from-layer="198" from-port="0" to-layer="199" to-port="0" />
		<edge from-layer="199" from-port="1" to-layer="200" to-port="1" />
		<edge from-layer="200" from-port="2" to-layer="201" to-port="0" />
		<edge from-layer="201" from-port="1" to-layer="204" to-port="0" />
		<edge from-layer="202" from-port="0" to-layer="203" to-port="0" />
		<edge from-layer="203" from-port="1" to-layer="204" to-port="1" />
		<edge from-layer="204" from-port="2" to-layer="207" to-port="0" />
		<edge from-layer="205" from-port="0" to-layer="206" to-port="0" />
		<edge from-layer="206" from-port="1" to-layer="207" to-port="1" />
		<edge from-layer="207" from-port="2" to-layer="208" to-port="0" />
		<edge from-layer="208" from-port="1" to-layer="211" to-port="0" />
		<edge from-layer="209" from-port="0" to-layer="210" to-port="0" />
		<edge from-layer="210" from-port="1" to-layer="211" to-port="1" />
		<edge from-layer="211" from-port="2" to-layer="214" to-port="0" />
		<edge from-layer="212" from-port="0" to-layer="213" to-port="0" />
		<edge from-layer="213" from-port="1" to-layer="214" to-port="1" />
		<edge from-layer="214" from-port="2" to-layer="215" to-port="0" />
		<edge from-layer="215" from-port="1" to-layer="218" to-port="0" />
		<edge from-layer="215" from-port="1" to-layer="235" to-port="0" />
		<edge from-layer="215" from-port="1" to-layer="342" to-port="0" />
		<edge from-layer="216" from-port="0" to-layer="217" to-port="0" />
		<edge from-layer="217" from-port="1" to-layer="218" to-port="1" />
		<edge from-layer="218" from-port="2" to-layer="221" to-port="0" />
		<edge from-layer="219" from-port="0" to-layer="220" to-port="0" />
		<edge from-layer="220" from-port="1" to-layer="221" to-port="1" />
		<edge from-layer="221" from-port="2" to-layer="222" to-port="0" />
		<edge from-layer="222" from-port="1" to-layer="225" to-port="0" />
		<edge from-layer="223" from-port="0" to-layer="224" to-port="0" />
		<edge from-layer="224" from-port="1" to-layer="225" to-port="1" />
		<edge from-layer="225" from-port="2" to-layer="228" to-port="0" />
		<edge from-layer="226" from-port="0" to-layer="227" to-port="0" />
		<edge from-layer="227" from-port="1" to-layer="228" to-port="1" />
		<edge from-layer="228" from-port="2" to-layer="230" to-port="0" />
		<edge from-layer="229" from-port="0" to-layer="230" to-port="1" />
		<edge from-layer="230" from-port="2" to-layer="232" to-port="0" />
		<edge from-layer="231" from-port="0" to-layer="232" to-port="1" />
		<edge from-layer="232" from-port="2" to-layer="264" to-port="2" />
		<edge from-layer="233" from-port="0" to-layer="234" to-port="0" />
		<edge from-layer="234" from-port="1" to-layer="235" to-port="1" />
		<edge from-layer="235" from-port="2" to-layer="238" to-port="0" />
		<edge from-layer="236" from-port="0" to-layer="237" to-port="0" />
		<edge from-layer="237" from-port="1" to-layer="238" to-port="1" />
		<edge from-layer="238" from-port="2" to-layer="239" to-port="0" />
		<edge from-layer="239" from-port="1" to-layer="242" to-port="0" />
		<edge from-layer="240" from-port="0" to-layer="241" to-port="0" />
		<edge from-layer="241" from-port="1" to-layer="242" to-port="1" />
		<edge from-layer="242" from-port="2" to-layer="245" to-port="0" />
		<edge from-layer="243" from-port="0" to-layer="244" to-port="0" />
		<edge from-layer="244" from-port="1" to-layer="245" to-port="1" />
		<edge from-layer="245" from-port="2" to-layer="246" to-port="0" />
		<edge from-layer="246" from-port="1" to-layer="249" to-port="0" />
		<edge from-layer="247" from-port="0" to-layer="248" to-port="0" />
		<edge from-layer="248" from-port="1" to-layer="249" to-port="1" />
		<edge from-layer="249" from-port="2" to-layer="252" to-port="0" />
		<edge from-layer="250" from-port="0" to-layer="251" to-port="0" />
		<edge from-layer="251" from-port="1" to-layer="252" to-port="1" />
		<edge from-layer="252" from-port="2" to-layer="253" to-port="0" />
		<edge from-layer="253" from-port="1" to-layer="256" to-port="0" />
		<edge from-layer="253" from-port="1" to-layer="359" to-port="0" />
		<edge from-layer="254" from-port="0" to-layer="255" to-port="0" />
		<edge from-layer="255" from-port="1" to-layer="256" to-port="1" />
		<edge from-layer="256" from-port="2" to-layer="259" to-port="0" />
		<edge from-layer="257" from-port="0" to-layer="258" to-port="0" />
		<edge from-layer="258" from-port="1" to-layer="259" to-port="1" />
		<edge from-layer="259" from-port="2" to-layer="261" to-port="0" />
		<edge from-layer="260" from-port="0" to-layer="261" to-port="1" />
		<edge from-layer="261" from-port="2" to-layer="263" to-port="0" />
		<edge from-layer="262" from-port="0" to-layer="263" to-port="1" />
		<edge from-layer="263" from-port="2" to-layer="264" to-port="3" />
		<edge from-layer="264" from-port="4" to-layer="269" to-port="0" />
		<edge from-layer="264" from-port="4" to-layer="280" to-port="0" />
		<edge from-layer="265" from-port="0" to-layer="269" to-port="1" />
		<edge from-layer="266" from-port="0" to-layer="269" to-port="2" />
		<edge from-layer="267" from-port="0" to-layer="269" to-port="3" />
		<edge from-layer="268" from-port="0" to-layer="269" to-port="4" />
		<edge from-layer="269" from-port="5" to-layer="272" to-port="0" />
		<edge from-layer="270" from-port="0" to-layer="271" to-port="0" />
		<edge from-layer="271" from-port="1" to-layer="272" to-port="1" />
		<edge from-layer="272" from-port="2" to-layer="275" to-port="0" />
		<edge from-layer="273" from-port="0" to-layer="274" to-port="0" />
		<edge from-layer="274" from-port="1" to-layer="275" to-port="1" />
		<edge from-layer="275" from-port="2" to-layer="288" to-port="0" />
		<edge from-layer="276" from-port="0" to-layer="280" to-port="1" />
		<edge from-layer="277" from-port="0" to-layer="280" to-port="2" />
		<edge from-layer="278" from-port="0" to-layer="280" to-port="3" />
		<edge from-layer="279" from-port="0" to-layer="280" to-port="4" />
		<edge from-layer="280" from-port="5" to-layer="283" to-port="0" />
		<edge from-layer="281" from-port="0" to-layer="282" to-port="0" />
		<edge from-layer="282" from-port="1" to-layer="283" to-port="1" />
		<edge from-layer="283" from-port="2" to-layer="284" to-port="0" />
		<edge from-layer="284" from-port="1" to-layer="287" to-port="0" />
		<edge from-layer="285" from-port="0" to-layer="286" to-port="0" />
		<edge from-layer="286" from-port="1" to-layer="287" to-port="1" />
		<edge from-layer="287" from-port="2" to-layer="288" to-port="1" />
		<edge from-layer="288" from-port="2" to-layer="293" to-port="0" />
		<edge from-layer="288" from-port="2" to-layer="298" to-port="0" />
		<edge from-layer="289" from-port="0" to-layer="293" to-port="1" />
		<edge from-layer="290" from-port="0" to-layer="293" to-port="2" />
		<edge from-layer="291" from-port="0" to-layer="293" to-port="3" />
		<edge from-layer="292" from-port="0" to-layer="293" to-port="4" />
		<edge from-layer="293" from-port="5" to-layer="302" to-port="0" />
		<edge from-layer="293" from-port="5" to-layer="303" to-port="0" />
		<edge from-layer="294" from-port="0" to-layer="298" to-port="1" />
		<edge from-layer="295" from-port="0" to-layer="298" to-port="2" />
		<edge from-layer="296" from-port="0" to-layer="298" to-port="3" />
		<edge from-layer="297" from-port="0" to-layer="298" to-port="4" />
		<edge from-layer="298" from-port="5" to-layer="301" to-port="0" />
		<edge from-layer="299" from-port="0" to-layer="300" to-port="0" />
		<edge from-layer="300" from-port="1" to-layer="301" to-port="1" />
		<edge from-layer="301" from-port="2" to-layer="302" to-port="1" />
		<edge from-layer="301" from-port="2" to-layer="303" to-port="1" />
		<edge from-layer="302" from-port="2" to-layer="304" to-port="0" />
		<edge from-layer="303" from-port="2" to-layer="304" to-port="1" />
		<edge from-layer="304" from-port="2" to-layer="305" to-port="0" />
		<edge from-layer="306" from-port="0" to-layer="307" to-port="0" />
		<edge from-layer="307" from-port="1" to-layer="308" to-port="1" />
		<edge from-layer="308" from-port="2" to-layer="311" to-port="0" />
		<edge from-layer="309" from-port="0" to-layer="310" to-port="0" />
		<edge from-layer="310" from-port="1" to-layer="311" to-port="1" />
		<edge from-layer="311" from-port="2" to-layer="312" to-port="0" />
		<edge from-layer="312" from-port="1" to-layer="315" to-port="0" />
		<edge from-layer="313" from-port="0" to-layer="314" to-port="0" />
		<edge from-layer="314" from-port="1" to-layer="315" to-port="1" />
		<edge from-layer="315" from-port="2" to-layer="318" to-port="0" />
		<edge from-layer="316" from-port="0" to-layer="317" to-port="0" />
		<edge from-layer="317" from-port="1" to-layer="318" to-port="1" />
		<edge from-layer="318" from-port="2" to-layer="320" to-port="0" />
		<edge from-layer="319" from-port="0" to-layer="320" to-port="1" />
		<edge from-layer="320" from-port="2" to-layer="322" to-port="0" />
		<edge from-layer="321" from-port="0" to-layer="322" to-port="1" />
		<edge from-layer="322" from-port="2" to-layer="367" to-port="0" />
		<edge from-layer="323" from-port="0" to-layer="324" to-port="0" />
		<edge from-layer="324" from-port="1" to-layer="325" to-port="1" />
		<edge from-layer="325" from-port="2" to-layer="328" to-port="0" />
		<edge from-layer="326" from-port="0" to-layer="327" to-port="0" />
		<edge from-layer="327" from-port="1" to-layer="328" to-port="1" />
		<edge from-layer="328" from-port="2" to-layer="329" to-port="0" />
		<edge from-layer="329" from-port="1" to-layer="332" to-port="0" />
		<edge from-layer="330" from-port="0" to-layer="331" to-port="0" />
		<edge from-layer="331" from-port="1" to-layer="332" to-port="1" />
		<edge from-layer="332" from-port="2" to-layer="335" to-port="0" />
		<edge from-layer="333" from-port="0" to-layer="334" to-port="0" />
		<edge from-layer="334" from-port="1" to-layer="335" to-port="1" />
		<edge from-layer="335" from-port="2" to-layer="337" to-port="0" />
		<edge from-layer="336" from-port="0" to-layer="337" to-port="1" />
		<edge from-layer="337" from-port="2" to-layer="339" to-port="0" />
		<edge from-layer="338" from-port="0" to-layer="339" to-port="1" />
		<edge from-layer="339" from-port="2" to-layer="367" to-port="1" />
		<edge from-layer="340" from-port="0" to-layer="341" to-port="0" />
		<edge from-layer="341" from-port="1" to-layer="342" to-port="1" />
		<edge from-layer="342" from-port="2" to-layer="345" to-port="0" />
		<edge from-layer="343" from-port="0" to-layer="344" to-port="0" />
		<edge from-layer="344" from-port="1" to-layer="345" to-port="1" />
		<edge from-layer="345" from-port="2" to-layer="346" to-port="0" />
		<edge from-layer="346" from-port="1" to-layer="349" to-port="0" />
		<edge from-layer="347" from-port="0" to-layer="348" to-port="0" />
		<edge from-layer="348" from-port="1" to-layer="349" to-port="1" />
		<edge from-layer="349" from-port="2" to-layer="352" to-port="0" />
		<edge from-layer="350" from-port="0" to-layer="351" to-port="0" />
		<edge from-layer="351" from-port="1" to-layer="352" to-port="1" />
		<edge from-layer="352" from-port="2" to-layer="354" to-port="0" />
		<edge from-layer="353" from-port="0" to-layer="354" to-port="1" />
		<edge from-layer="354" from-port="2" to-layer="356" to-port="0" />
		<edge from-layer="355" from-port="0" to-layer="356" to-port="1" />
		<edge from-layer="356" from-port="2" to-layer="367" to-port="2" />
		<edge from-layer="357" from-port="0" to-layer="358" to-port="0" />
		<edge from-layer="358" from-port="1" to-layer="359" to-port="1" />
		<edge from-layer="359" from-port="2" to-layer="362" to-port="0" />
		<edge from-layer="360" from-port="0" to-layer="361" to-port="0" />
		<edge from-layer="361" from-port="1" to-layer="362" to-port="1" />
		<edge from-layer="362" from-port="2" to-layer="364" to-port="0" />
		<edge from-layer="363" from-port="0" to-layer="364" to-port="1" />
		<edge from-layer="364" from-port="2" to-layer="366" to-port="0" />
		<edge from-layer="365" from-port="0" to-layer="366" to-port="1" />
		<edge from-layer="366" from-port="2" to-layer="367" to-port="3" />
		<edge from-layer="367" from-port="4" to-layer="368" to-port="0" />
		<edge from-layer="367" from-port="4" to-layer="377" to-port="0" />
		<edge from-layer="368" from-port="1" to-layer="372" to-port="0" />
		<edge from-layer="368" from-port="1" to-layer="379" to-port="1" />
		<edge from-layer="369" from-port="0" to-layer="372" to-port="1" />
		<edge from-layer="370" from-port="0" to-layer="372" to-port="2" />
		<edge from-layer="371" from-port="0" to-layer="372" to-port="3" />
		<edge from-layer="372" from-port="4" to-layer="374" to-port="0" />
		<edge from-layer="373" from-port="0" to-layer="374" to-port="1" />
		<edge from-layer="374" from-port="2" to-layer="376" to-port="0" />
		<edge from-layer="375" from-port="0" to-layer="376" to-port="1" />
		<edge from-layer="376" from-port="2" to-layer="377" to-port="1" />
		<edge from-layer="377" from-port="2" to-layer="378" to-port="0" />
		<edge from-layer="378" from-port="1" to-layer="379" to-port="0" />
		<edge from-layer="379" from-port="2" to-layer="380" to-port="0" />
	</edges>
	<rt_info>
		<MO_version value="2024.6.0-17404-4c0f47d2335-releases/2024/6" />
		<Runtime_version value="2024.6.0-17404-4c0f47d2335-releases/2024/6" />
		<conversion_parameters>
			<framework value="onnx" />
			<input value="input" />
			<input_model value="DIR/ultra-lightweight-face-detection-slim-320.onnx" />
			<input_shape value="[1, 3, 240, 320]" />
			<is_python_api_used value="False" />
			<layout value="input(NCHW)" />
			<mean_values value="input[127.0,127.0,127.0]" />
			<model_name value="ultra-lightweight-face-detection-slim-320" />
			<output value="boxes,scores" />
			<output_dir value="/Users/titus/tdump/forhead/model/public/ultra-lightweight-face-detection-slim-320/FP16" />
			<reverse_input_channels value="True" />
			<scale_values value="input[128.0,128.0,128.0]" />
		</conversion_parameters>
		<legacy_frontend value="False" />
	</rt_info>
</net>
